"builtin.module"() <{sym_name = "jit_main"}> ({
  "func.func"() <{function_type = () -> tensor<2x4x6xf32>, res_attrs = [{jax.result_info = "", mhlo.layout_mode = "default"}], sym_name = "main", sym_visibility = "public"}> ({
    %3:2 = "func.call"() <{callee = @inputs}> : () -> (tensor<3x5x7xf32>, tensor<2x4x6xf32>)
    %4 = "func.call"() <{callee = @expected}> : () -> tensor<2x4x6xf32>
    %5 = "stablehlo.constant"() <{value = dense<0xFF800000> : tensor<f32>}> : () -> tensor<f32>
    %6 = "stablehlo.pad"(%3#1, %5) <{edge_padding_high = array<i64: 1, 1, 1>, edge_padding_low = array<i64: 1, 1, 1>, interior_padding = array<i64: 0, 0, 0>}> : (tensor<2x4x6xf32>, tensor<f32>) -> tensor<4x6x8xf32>
    %7 = "stablehlo.constant"() <{value = dense<0.000000e+00> : tensor<f32>}> : () -> tensor<f32>
    %8 = "stablehlo.select_and_scatter"(%6, %3#0, %7) <{window_dimensions = array<i64: 2, 2, 2>}> ({
    ^bb0(%arg2: tensor<f32>, %arg3: tensor<f32>):
      %11 = "stablehlo.compare"(%arg2, %arg3) <{compare_type = #stablehlo<comparison_type FLOAT>, comparison_direction = #stablehlo<comparison_direction GE>}> : (tensor<f32>, tensor<f32>) -> tensor<i1>
      "stablehlo.return"(%11) : (tensor<i1>) -> ()
    }, {
    ^bb0(%arg0: tensor<f32>, %arg1: tensor<f32>):
      %10 = "stablehlo.add"(%arg0, %arg1) : (tensor<f32>, tensor<f32>) -> tensor<f32>
      "stablehlo.return"(%10) : (tensor<f32>) -> ()
    }) : (tensor<4x6x8xf32>, tensor<3x5x7xf32>, tensor<f32>) -> tensor<4x6x8xf32>
    %9 = "stablehlo.slice"(%8) <{limit_indices = array<i64: 3, 5, 7>, start_indices = array<i64: 1, 1, 1>, strides = array<i64: 1, 1, 1>}> : (tensor<4x6x8xf32>) -> tensor<2x4x6xf32>
    "stablehlo.custom_call"(%9, %4) <{call_target_name = "check.expect_close", has_side_effect = true}> : (tensor<2x4x6xf32>, tensor<2x4x6xf32>) -> ()
    "func.return"(%9) : (tensor<2x4x6xf32>) -> ()
  }) : () -> ()
  "func.func"() <{function_type = () -> (tensor<3x5x7xf32>, tensor<2x4x6xf32>), res_attrs = [{mhlo.layout_mode = "default"}, {mhlo.layout_mode = "default"}], sym_name = "inputs", sym_visibility = "private"}> ({
    %1 = "stablehlo.constant"() <{value = dense<"…"> : tensor<3x5x7xf32>}> : () -> tensor<3x5x7xf32>
    %2 = "stablehlo.constant"() <{value = dense<[[[… > : tensor<2x4x6xf32>}> : () -> tensor<2x4x6xf32>
    "func.return"(%1, %2) : (tensor<3x5x7xf32>, tensor<2x4x6xf32>) -> ()
  }) : () -> ()
  "func.func"() <{function_type = () -> tensor<2x4x6xf32>, res_attrs = [{mhlo.layout_mode = "default"}], sym_name = "expected", sym_visibility = "private"}> ({
    %0 = "stablehlo.constant"() <{value = dense<[[[… > : tensor<2x4x6xf32>}> : () -> tensor<2x4x6xf32>
    "func.return"(%0) : (tensor<2x4x6xf32>) -> ()
  }) : () -> ()
}) {mhlo.num_partitions = 1 : i32, mhlo.num_replicas = 1 : i32} : () -> ()

