"builtin.module"() ({
  "func.func"() <{function_type = () -> tensor<i1>, sym_name = "main"}> ({
    %0 = "stablehlo.constant"() <{value = dense<[[[… > : tensor<1x16x2xf32>}> : () -> tensor<1x16x2xf32>
    %1 = "stablehlo.constant"() <{value = dense<[[[-5.78321695, -6.70092058], [-4.02411413, -1.5279355]], [[4.82193375, -1.90760541], [4.670856, -1.44685578]], [[-3.33052278, 1.00520051], [1.20746529, -0.450568587]]]> : tensor<3x2x2xf32>}> : () -> tensor<3x2x2xf32>
    %2 = "stablehlo.constant"() <{value = dense<[[[… > : tensor<1x32x2xf32>}> : () -> tensor<1x32x2xf32>
    %3 = "stablehlo.uniform_quantize"(%1) : (tensor<3x2x2xf32>) -> tensor<3x2x2x!quant.uniform<i8:f32, 0.0039189298947652183:-128>>
    %4 = "stablehlo.uniform_quantize"(%0) : (tensor<1x16x2xf32>) -> tensor<1x16x2x!quant.uniform<i8:f32, 0.0039215482917486456:-128>>
    %5 = "stablehlo.convolution"(%4, %3) <{batch_group_count = 1 : i64, dimension_numbers = #stablehlo.conv<[b, 0, f]x[0, i, o]->[b, 0, f]>, feature_group_count = 1 : i64, lhs_dilation = array<i64: 2>, padding = dense<[[2, 1]]> : tensor<1x2xi64>}> : (tensor<1x16x2x!quant.uniform<i8:f32, 0.0039215482917486456:-128>>, tensor<3x2x2x!quant.uniform<i8:f32, 0.0039189298947652183:-128>>) -> tensor<1x32x2x!quant.uniform<i32:f32, 1.536827283429924E-5>>
    %6 = "stablehlo.uniform_quantize"(%5) : (tensor<1x32x2x!quant.uniform<i32:f32, 1.536827283429924E-5>>) -> tensor<1x32x2x!quant.uniform<i8:f32, 0.011014803718118107:-128>>
    %7 = "stablehlo.uniform_dequantize"(%6) : (tensor<1x32x2x!quant.uniform<i8:f32, 0.011014803718118107:-128>>) -> tensor<1x32x2xf32>
    %8 = "stablehlo.custom_call"(%2, %7) <{call_target_name = "check.eq"}> : (tensor<1x32x2xf32>, tensor<1x32x2xf32>) -> tensor<i1>
    "func.return"(%8) : (tensor<i1>) -> ()
  }) : () -> ()
}) {jax.uses_shape_polymorphism = true} : () -> ()

