"builtin.module"() <{sym_name = "jit_main"}> ({
  "func.func"() <{function_type = () -> tensor<5x6x7xf16>, res_attrs = [{jax.result_info = "", mhlo.layout_mode = "default"}], sym_name = "main", sym_visibility = "public"}> ({
    %3 = "stablehlo.constant"() <{value = dense<[[0, 1], [2, 3]]> : tensor<2x2xi64>}> : () -> tensor<2x2xi64>
    %4:2 = "func.call"() <{callee = @inputs}> : () -> (tensor<5x6x7xf16>, tensor<2x7xf16>)
    %5 = "func.call"() <{callee = @expected}> : () -> tensor<5x6x7xf16>
    %6 = "stablehlo.scatter"(%4#0, %3, %4#1) <{scatter_dimension_numbers = #stablehlo.scatter<update_window_dims = [1], inserted_window_dims = [0, 1], scatter_dims_to_operand_dims = [0, 1], index_vector_dim = 1>, unique_indices = true}> ({
    ^bb0(%arg0: tensor<f16>, %arg1: tensor<f16>):
      %7 = "stablehlo.maximum"(%arg0, %arg1) : (tensor<f16>, tensor<f16>) -> tensor<f16>
      "stablehlo.return"(%7) : (tensor<f16>) -> ()
    }) : (tensor<5x6x7xf16>, tensor<2x2xi64>, tensor<2x7xf16>) -> tensor<5x6x7xf16>
    "stablehlo.custom_call"(%6, %5) <{call_target_name = "check.expect_close", has_side_effect = true}> : (tensor<5x6x7xf16>, tensor<5x6x7xf16>) -> ()
    "func.return"(%6) : (tensor<5x6x7xf16>) -> ()
  }) : () -> ()
  "func.func"() <{function_type = () -> (tensor<5x6x7xf16>, tensor<2x7xf16>), res_attrs = [{mhlo.layout_mode = "default"}, {mhlo.layout_mode = "default"}], sym_name = "inputs", sym_visibility = "private"}> ({
    %1 = "stablehlo.constant"() <{value = dense<"…"> : tensor<5x6x7xf16>}> : () -> tensor<5x6x7xf16>
    %2 = "stablehlo.constant"() <{value = dense<[[2.961430e-01, -1.075440e-01, 1.652340e+00, -1.509770e+00, -4.233400e-01, 5.250000e+00, -2.697270e+00], [-1.001950e+00, 3.515630e+00, -2.300780e+00, 3.019530e+00, -4.963380e-01, 2.143860e-02, -3.469240e-01]]> : tensor<2x7xf16>}> : () -> tensor<2x7xf16>
    "func.return"(%1, %2) : (tensor<5x6x7xf16>, tensor<2x7xf16>) -> ()
  }) : () -> ()
  "func.func"() <{function_type = () -> tensor<5x6x7xf16>, res_attrs = [{mhlo.layout_mode = "default"}], sym_name = "expected", sym_visibility = "private"}> ({
    %0 = "stablehlo.constant"() <{value = dense<"…"> : tensor<5x6x7xf16>}> : () -> tensor<5x6x7xf16>
    "func.return"(%0) : (tensor<5x6x7xf16>) -> ()
  }) : () -> ()
}) {mhlo.num_partitions = 1 : i32, mhlo.num_replicas = 1 : i32} : () -> ()

