"builtin.module"() <{sym_name = "jit_main"}> ({
  "func.func"() <{function_type = () -> tensor<20x20xf32>, res_attrs = [{jax.result_info = "", mhlo.layout_mode = "default"}], sym_name = "main", sym_visibility = "public"}> ({
    %5:2 = "func.call"() <{callee = @inputs}> : () -> (tensor<20x20xf32>, tensor<20x20xf32>)
    %6 = "func.call"() <{callee = @expected}> : () -> tensor<20x20xf32>
    %7 = "stablehlo.constant"() <{value = dense<0.000000e+00> : tensor<f32>}> : () -> tensor<f32>
    %8 = "stablehlo.broadcast_in_dim"(%7) <{broadcast_dimensions = array<i64>}> : (tensor<f32>) -> tensor<20x20xf32>
    %9 = "stablehlo.compare"(%5#1, %8) <{compare_type = #stablehlo<comparison_type FLOAT>, comparison_direction = #stablehlo<comparison_direction LE>}> : (tensor<20x20xf32>, tensor<20x20xf32>) -> tensor<20x20xi1>
    %10 = "stablehlo.constant"() <{value = dense<0.000000e+00> : tensor<f32>}> : () -> tensor<f32>
    %11 = "stablehlo.broadcast_in_dim"(%10) <{broadcast_dimensions = array<i64>}> : (tensor<f32>) -> tensor<20x20xf32>
    %12 = "stablehlo.compare"(%5#0, %11) <{compare_type = #stablehlo<comparison_type FLOAT>, comparison_direction = #stablehlo<comparison_direction LE>}> : (tensor<20x20xf32>, tensor<20x20xf32>) -> tensor<20x20xi1>
    %13 = "stablehlo.or"(%9, %12) : (tensor<20x20xi1>, tensor<20x20xi1>) -> tensor<20x20xi1>
    %14 = "stablehlo.constant"() <{value = dense<1.000000e+00> : tensor<f32>}> : () -> tensor<f32>
    %15 = "stablehlo.broadcast_in_dim"(%14) <{broadcast_dimensions = array<i64>}> : (tensor<f32>) -> tensor<20x20xf32>
    %16 = "stablehlo.compare"(%5#1, %15) <{compare_type = #stablehlo<comparison_type FLOAT>, comparison_direction = #stablehlo<comparison_direction LT>}> : (tensor<20x20xf32>, tensor<20x20xf32>) -> tensor<20x20xi1>
    %17 = "stablehlo.compare"(%5#1, %5#0) <{compare_type = #stablehlo<comparison_type FLOAT>, comparison_direction = #stablehlo<comparison_direction LT>}> : (tensor<20x20xf32>, tensor<20x20xf32>) -> tensor<20x20xi1>
    %18 = "stablehlo.or"(%16, %17) : (tensor<20x20xi1>, tensor<20x20xi1>) -> tensor<20x20xi1>
    %19 = "stablehlo.log"(%5#1) : (tensor<20x20xf32>) -> tensor<20x20xf32>
    %20 = "stablehlo.multiply"(%5#0, %19) : (tensor<20x20xf32>, tensor<20x20xf32>) -> tensor<20x20xf32>
    %21 = "stablehlo.subtract"(%20, %5#1) : (tensor<20x20xf32>, tensor<20x20xf32>) -> tensor<20x20xf32>
    %22 = "chlo.lgamma"(%5#0) : (tensor<20x20xf32>) -> tensor<20x20xf32>
    %23 = "stablehlo.subtract"(%21, %22) : (tensor<20x20xf32>, tensor<20x20xf32>) -> tensor<20x20xf32>
    %24 = "stablehlo.constant"() <{value = dense<3.40282347E+38> : tensor<f32>}> : () -> tensor<f32>
    %25 = "stablehlo.log"(%24) : (tensor<f32>) -> tensor<f32>
    %26 = "stablehlo.negate"(%25) : (tensor<f32>) -> tensor<f32>
    %27 = "stablehlo.broadcast_in_dim"(%26) <{broadcast_dimensions = array<i64>}> : (tensor<f32>) -> tensor<20x20xf32>
    %28 = "stablehlo.compare"(%23, %27) <{compare_type = #stablehlo<comparison_type FLOAT>, comparison_direction = #stablehlo<comparison_direction LT>}> : (tensor<20x20xf32>, tensor<20x20xf32>) -> tensor<20x20xi1>
    %29 = "stablehlo.or"(%13, %28) : (tensor<20x20xi1>, tensor<20x20xi1>) -> tensor<20x20xi1>
    %30 = "stablehlo.not"(%29) : (tensor<20x20xi1>) -> tensor<20x20xi1>
    %31 = "stablehlo.exponential"(%23) : (tensor<20x20xf32>) -> tensor<20x20xf32>
    %32 = "stablehlo.and"(%30, %18) : (tensor<20x20xi1>, tensor<20x20xi1>) -> tensor<20x20xi1>
    %33 = "stablehlo.constant"() <{value = dense<1.000000e+00> : tensor<f32>}> : () -> tensor<f32>
    %34 = "stablehlo.broadcast_in_dim"(%33) <{broadcast_dimensions = array<i64>}> : (tensor<f32>) -> tensor<20x20xf32>
    %35 = "stablehlo.constant"() <{value = dense<1.000000e+00> : tensor<f32>}> : () -> tensor<f32>
    %36 = "stablehlo.broadcast_in_dim"(%35) <{broadcast_dimensions = array<i64>}> : (tensor<f32>) -> tensor<20x20xf32>
    %37 = "stablehlo.constant"() <{value = dense<0.000000e+00> : tensor<f32>}> : () -> tensor<f32>
    %38 = "stablehlo.broadcast_in_dim"(%37) <{broadcast_dimensions = array<i64>}> : (tensor<f32>) -> tensor<20x20xf32>
    %39 = "stablehlo.constant"() <{value = dense<0.000000e+00> : tensor<f32>}> : () -> tensor<f32>
    %40 = "stablehlo.broadcast_in_dim"(%39) <{broadcast_dimensions = array<i64>}> : (tensor<f32>) -> tensor<20x20xf32>
    %41:7 = "stablehlo.while"(%32, %5#0, %34, %36, %5#1, %38, %40) ({
    ^bb0(%arg40: tensor<20x20xi1>, %arg41: tensor<20x20xf32>, %arg42: tensor<20x20xf32>, %arg43: tensor<20x20xf32>, %arg44: tensor<20x20xf32>, %arg45: tensor<20x20xf32>, %arg46: tensor<20x20xf32>):
      %222 = "stablehlo.constant"() <{value = dense<false> : tensor<i1>}> : () -> tensor<i1>
      %223 = "stablehlo.reduce"(%arg40, %222) <{dimensions = array<i64: 0, 1>}> ({
      ^bb0(%arg47: tensor<i1>, %arg48: tensor<i1>):
        %224 = "stablehlo.or"(%arg47, %arg48) : (tensor<i1>, tensor<i1>) -> tensor<i1>
        "stablehlo.return"(%224) : (tensor<i1>) -> ()
      }) : (tensor<20x20xi1>, tensor<i1>) -> tensor<i1>
      "stablehlo.return"(%223) : (tensor<i1>) -> ()
    }, {
    ^bb0(%arg33: tensor<20x20xi1>, %arg34: tensor<20x20xf32>, %arg35: tensor<20x20xf32>, %arg36: tensor<20x20xf32>, %arg37: tensor<20x20xf32>, %arg38: tensor<20x20xf32>, %arg39: tensor<20x20xf32>):
      %198 = "stablehlo.constant"() <{value = dense<1.000000e+00> : tensor<f32>}> : () -> tensor<f32>
      %199 = "stablehlo.broadcast_in_dim"(%198) <{broadcast_dimensions = array<i64>}> : (tensor<f32>) -> tensor<20x20xf32>
      %200 = "stablehlo.add"(%arg34, %199) : (tensor<20x20xf32>, tensor<20x20xf32>) -> tensor<20x20xf32>
      %201 = "stablehlo.divide"(%arg37, %200) : (tensor<20x20xf32>, tensor<20x20xf32>) -> tensor<20x20xf32>
      %202 = "stablehlo.multiply"(%arg38, %201) : (tensor<20x20xf32>, tensor<20x20xf32>) -> tensor<20x20xf32>
      %203 = "stablehlo.multiply"(%arg35, %arg37) : (tensor<20x20xf32>, tensor<20x20xf32>) -> tensor<20x20xf32>
      %204 = "stablehlo.multiply"(%200, %200) : (tensor<20x20xf32>, tensor<20x20xf32>) -> tensor<20x20xf32>
      %205 = "stablehlo.divide"(%203, %204) : (tensor<20x20xf32>, tensor<20x20xf32>) -> tensor<20x20xf32>
      %206 = "stablehlo.subtract"(%202, %205) : (tensor<20x20xf32>, tensor<20x20xf32>) -> tensor<20x20xf32>
      %207 = "stablehlo.add"(%arg39, %206) : (tensor<20x20xf32>, tensor<20x20xf32>) -> tensor<20x20xf32>
      %208 = "stablehlo.divide"(%arg37, %200) : (tensor<20x20xf32>, tensor<20x20xf32>) -> tensor<20x20xf32>
      %209 = "stablehlo.multiply"(%arg35, %208) : (tensor<20x20xf32>, tensor<20x20xf32>) -> tensor<20x20xf32>
      %210 = "stablehlo.add"(%arg36, %209) : (tensor<20x20xf32>, tensor<20x20xf32>) -> tensor<20x20xf32>
      %211 = "stablehlo.divide"(%209, %210) : (tensor<20x20xf32>, tensor<20x20xf32>) -> tensor<20x20xf32>
      %212 = "stablehlo.constant"() <{value = dense<1.1920929E-7> : tensor<f32>}> : () -> tensor<f32>
      %213 = "stablehlo.broadcast_in_dim"(%212) <{broadcast_dimensions = array<i64>}> : (tensor<f32>) -> tensor<20x20xf32>
      %214 = "stablehlo.compare"(%211, %213) <{compare_type = #stablehlo<comparison_type FLOAT>, comparison_direction = #stablehlo<comparison_direction GT>}> : (tensor<20x20xf32>, tensor<20x20xf32>) -> tensor<20x20xi1>
      %215 = "stablehlo.and"(%arg33, %214) : (tensor<20x20xi1>, tensor<20x20xi1>) -> tensor<20x20xi1>
      %216 = "stablehlo.select"(%arg33, %200, %arg34) : (tensor<20x20xi1>, tensor<20x20xf32>, tensor<20x20xf32>) -> tensor<20x20xf32>
      %217 = "stablehlo.select"(%arg33, %209, %arg35) : (tensor<20x20xi1>, tensor<20x20xf32>, tensor<20x20xf32>) -> tensor<20x20xf32>
      %218 = "stablehlo.select"(%arg33, %210, %arg36) : (tensor<20x20xi1>, tensor<20x20xf32>, tensor<20x20xf32>) -> tensor<20x20xf32>
      %219 = "stablehlo.select"(%arg33, %arg37, %arg37) : (tensor<20x20xi1>, tensor<20x20xf32>, tensor<20x20xf32>) -> tensor<20x20xf32>
      %220 = "stablehlo.select"(%arg33, %206, %arg38) : (tensor<20x20xi1>, tensor<20x20xf32>, tensor<20x20xf32>) -> tensor<20x20xf32>
      %221 = "stablehlo.select"(%arg33, %207, %arg39) : (tensor<20x20xi1>, tensor<20x20xf32>, tensor<20x20xf32>) -> tensor<20x20xf32>
      "stablehlo.return"(%215, %216, %217, %218, %219, %220, %221) : (tensor<20x20xi1>, tensor<20x20xf32>, tensor<20x20xf32>, tensor<20x20xf32>, tensor<20x20xf32>, tensor<20x20xf32>, tensor<20x20xf32>) -> ()
    }) : (tensor<20x20xi1>, tensor<20x20xf32>, tensor<20x20xf32>, tensor<20x20xf32>, tensor<20x20xf32>, tensor<20x20xf32>, tensor<20x20xf32>) -> (tensor<20x20xi1>, tensor<20x20xf32>, tensor<20x20xf32>, tensor<20x20xf32>, tensor<20x20xf32>, tensor<20x20xf32>, tensor<20x20xf32>)
    %42 = "stablehlo.multiply"(%41#3, %31) : (tensor<20x20xf32>, tensor<20x20xf32>) -> tensor<20x20xf32>
    %43 = "stablehlo.divide"(%42, %5#0) : (tensor<20x20xf32>, tensor<20x20xf32>) -> tensor<20x20xf32>
    %44 = "stablehlo.not"(%18) : (tensor<20x20xi1>) -> tensor<20x20xi1>
    %45 = "stablehlo.and"(%30, %44) : (tensor<20x20xi1>, tensor<20x20xi1>) -> tensor<20x20xi1>
    %46 = "stablehlo.constant"() <{value = dense<1.000000e+00> : tensor<f32>}> : () -> tensor<f32>
    %47 = "stablehlo.broadcast_in_dim"(%46) <{broadcast_dimensions = array<i64>}> : (tensor<f32>) -> tensor<20x20xf32>
    %48 = "stablehlo.subtract"(%47, %5#0) : (tensor<20x20xf32>, tensor<20x20xf32>) -> tensor<20x20xf32>
    %49 = "stablehlo.add"(%5#1, %48) : (tensor<20x20xf32>, tensor<20x20xf32>) -> tensor<20x20xf32>
    %50 = "stablehlo.constant"() <{value = dense<1.000000e+00> : tensor<f32>}> : () -> tensor<f32>
    %51 = "stablehlo.broadcast_in_dim"(%50) <{broadcast_dimensions = array<i64>}> : (tensor<f32>) -> tensor<20x20xf32>
    %52 = "stablehlo.add"(%49, %51) : (tensor<20x20xf32>, tensor<20x20xf32>) -> tensor<20x20xf32>
    %53 = "stablehlo.constant"() <{value = dense<1.000000e+00> : tensor<f32>}> : () -> tensor<f32>
    %54 = "stablehlo.broadcast_in_dim"(%53) <{broadcast_dimensions = array<i64>}> : (tensor<f32>) -> tensor<20x20xf32>
    %55 = "stablehlo.constant"() <{value = dense<1.000000e+00> : tensor<f32>}> : () -> tensor<f32>
    %56 = "stablehlo.broadcast_in_dim"(%55) <{broadcast_dimensions = array<i64>}> : (tensor<f32>) -> tensor<20x20xf32>
    %57 = "stablehlo.add"(%5#1, %56) : (tensor<20x20xf32>, tensor<20x20xf32>) -> tensor<20x20xf32>
    %58 = "stablehlo.multiply"(%52, %5#1) : (tensor<20x20xf32>, tensor<20x20xf32>) -> tensor<20x20xf32>
    %59 = "stablehlo.divide"(%57, %58) : (tensor<20x20xf32>, tensor<20x20xf32>) -> tensor<20x20xf32>
    %60 = "stablehlo.constant"() <{value = dense<1.000000e+00> : tensor<f32>}> : () -> tensor<f32>
    %61 = "stablehlo.broadcast_in_dim"(%60) <{broadcast_dimensions = array<i64>}> : (tensor<f32>) -> tensor<20x20xf32>
    %62 = "stablehlo.constant"() <{value = dense<0.000000e+00> : tensor<f32>}> : () -> tensor<f32>
    %63 = "stablehlo.broadcast_in_dim"(%62) <{broadcast_dimensions = array<i64>}> : (tensor<f32>) -> tensor<20x20xf32>
    %64 = "stablehlo.constant"() <{value = dense<0.000000e+00> : tensor<f32>}> : () -> tensor<f32>
    %65 = "stablehlo.broadcast_in_dim"(%64) <{broadcast_dimensions = array<i64>}> : (tensor<f32>) -> tensor<20x20xf32>
    %66 = "stablehlo.constant"() <{value = dense<0.000000e+00> : tensor<f32>}> : () -> tensor<f32>
    %67 = "stablehlo.broadcast_in_dim"(%66) <{broadcast_dimensions = array<i64>}> : (tensor<f32>) -> tensor<20x20xf32>
    %68 = "stablehlo.negate"(%5#1) : (tensor<20x20xf32>) -> tensor<20x20xf32>
    %69 = "stablehlo.multiply"(%59, %68) : (tensor<20x20xf32>, tensor<20x20xf32>) -> tensor<20x20xf32>
    %70 = "stablehlo.subtract"(%67, %69) : (tensor<20x20xf32>, tensor<20x20xf32>) -> tensor<20x20xf32>
    %71 = "stablehlo.divide"(%70, %58) : (tensor<20x20xf32>, tensor<20x20xf32>) -> tensor<20x20xf32>
    %72 = "stablehlo.constant"() <{value = dense<0.000000e+00> : tensor<f32>}> : () -> tensor<f32>
    %73:15 = "stablehlo.while"(%45, %59, %61, %48, %52, %72, %57, %58, %54, %5#1, %63, %65, %67, %68, %71) ({
    ^bb0(%arg16: tensor<20x20xi1>, %arg17: tensor<20x20xf32>, %arg18: tensor<20x20xf32>, %arg19: tensor<20x20xf32>, %arg20: tensor<20x20xf32>, %arg21: tensor<f32>, %arg22: tensor<20x20xf32>, %arg23: tensor<20x20xf32>, %arg24: tensor<20x20xf32>, %arg25: tensor<20x20xf32>, %arg26: tensor<20x20xf32>, %arg27: tensor<20x20xf32>, %arg28: tensor<20x20xf32>, %arg29: tensor<20x20xf32>, %arg30: tensor<20x20xf32>):
      %192 = "stablehlo.constant"() <{value = dense<2.000000e+03> : tensor<f32>}> : () -> tensor<f32>
      %193 = "stablehlo.compare"(%arg21, %192) <{compare_type = #stablehlo<comparison_type FLOAT>, comparison_direction = #stablehlo<comparison_direction LT>}> : (tensor<f32>, tensor<f32>) -> tensor<i1>
      %194 = "stablehlo.constant"() <{value = dense<false> : tensor<i1>}> : () -> tensor<i1>
      %195 = "stablehlo.reduce"(%arg16, %194) <{dimensions = array<i64: 0, 1>}> ({
      ^bb0(%arg31: tensor<i1>, %arg32: tensor<i1>):
        %197 = "stablehlo.or"(%arg31, %arg32) : (tensor<i1>, tensor<i1>) -> tensor<i1>
        "stablehlo.return"(%197) : (tensor<i1>) -> ()
      }) : (tensor<20x20xi1>, tensor<i1>) -> tensor<i1>
      %196 = "stablehlo.and"(%193, %195) : (tensor<i1>, tensor<i1>) -> tensor<i1>
      "stablehlo.return"(%196) : (tensor<i1>) -> ()
    }, {
    ^bb0(%arg1: tensor<20x20xi1>, %arg2: tensor<20x20xf32>, %arg3: tensor<20x20xf32>, %arg4: tensor<20x20xf32>, %arg5: tensor<20x20xf32>, %arg6: tensor<f32>, %arg7: tensor<20x20xf32>, %arg8: tensor<20x20xf32>, %arg9: tensor<20x20xf32>, %arg10: tensor<20x20xf32>, %arg11: tensor<20x20xf32>, %arg12: tensor<20x20xf32>, %arg13: tensor<20x20xf32>, %arg14: tensor<20x20xf32>, %arg15: tensor<20x20xf32>):
      %88 = "stablehlo.constant"() <{value = dense<1.000000e+00> : tensor<f32>}> : () -> tensor<f32>
      %89 = "stablehlo.add"(%arg6, %88) : (tensor<f32>, tensor<f32>) -> tensor<f32>
      %90 = "stablehlo.constant"() <{value = dense<1.000000e+00> : tensor<f32>}> : () -> tensor<f32>
      %91 = "stablehlo.broadcast_in_dim"(%90) <{broadcast_dimensions = array<i64>}> : (tensor<f32>) -> tensor<20x20xf32>
      %92 = "stablehlo.add"(%arg4, %91) : (tensor<20x20xf32>, tensor<20x20xf32>) -> tensor<20x20xf32>
      %93 = "stablehlo.constant"() <{value = dense<2.000000e+00> : tensor<f32>}> : () -> tensor<f32>
      %94 = "stablehlo.broadcast_in_dim"(%93) <{broadcast_dimensions = array<i64>}> : (tensor<f32>) -> tensor<20x20xf32>
      %95 = "stablehlo.add"(%arg5, %94) : (tensor<20x20xf32>, tensor<20x20xf32>) -> tensor<20x20xf32>
      %96 = "stablehlo.broadcast_in_dim"(%89) <{broadcast_dimensions = array<i64>}> : (tensor<f32>) -> tensor<20x20xf32>
      %97 = "stablehlo.multiply"(%92, %96) : (tensor<20x20xf32>, tensor<20x20xf32>) -> tensor<20x20xf32>
      %98 = "stablehlo.multiply"(%arg7, %95) : (tensor<20x20xf32>, tensor<20x20xf32>) -> tensor<20x20xf32>
      %99 = "stablehlo.multiply"(%arg9, %97) : (tensor<20x20xf32>, tensor<20x20xf32>) -> tensor<20x20xf32>
      %100 = "stablehlo.subtract"(%98, %99) : (tensor<20x20xf32>, tensor<20x20xf32>) -> tensor<20x20xf32>
      %101 = "stablehlo.multiply"(%arg8, %95) : (tensor<20x20xf32>, tensor<20x20xf32>) -> tensor<20x20xf32>
      %102 = "stablehlo.multiply"(%arg10, %97) : (tensor<20x20xf32>, tensor<20x20xf32>) -> tensor<20x20xf32>
      %103 = "stablehlo.subtract"(%101, %102) : (tensor<20x20xf32>, tensor<20x20xf32>) -> tensor<20x20xf32>
      %104 = "stablehlo.constant"() <{value = dense<0.000000e+00> : tensor<f32>}> : () -> tensor<f32>
      %105 = "stablehlo.broadcast_in_dim"(%104) <{broadcast_dimensions = array<i64>}> : (tensor<f32>) -> tensor<20x20xf32>
      %106 = "stablehlo.compare"(%103, %105) <{compare_type = #stablehlo<comparison_type FLOAT>, comparison_direction = #stablehlo<comparison_direction NE>}> : (tensor<20x20xf32>, tensor<20x20xf32>) -> tensor<20x20xi1>
      %107 = "stablehlo.divide"(%100, %103) : (tensor<20x20xf32>, tensor<20x20xf32>) -> tensor<20x20xf32>
      %108 = "stablehlo.subtract"(%arg2, %107) : (tensor<20x20xf32>, tensor<20x20xf32>) -> tensor<20x20xf32>
      %109 = "stablehlo.divide"(%108, %107) : (tensor<20x20xf32>, tensor<20x20xf32>) -> tensor<20x20xf32>
      %110 = "stablehlo.abs"(%109) : (tensor<20x20xf32>) -> tensor<20x20xf32>
      %111 = "stablehlo.constant"() <{value = dense<1.000000e+00> : tensor<f32>}> : () -> tensor<f32>
      %112 = "stablehlo.broadcast_in_dim"(%111) <{broadcast_dimensions = array<i64>}> : (tensor<f32>) -> tensor<20x20xf32>
      %113 = "stablehlo.select"(%106, %110, %112) : (tensor<20x20xi1>, tensor<20x20xf32>, tensor<20x20xf32>) -> tensor<20x20xf32>
      %114 = "stablehlo.select"(%106, %107, %arg2) : (tensor<20x20xi1>, tensor<20x20xf32>, tensor<20x20xf32>) -> tensor<20x20xf32>
      %115 = "stablehlo.multiply"(%arg13, %95) : (tensor<20x20xf32>, tensor<20x20xf32>) -> tensor<20x20xf32>
      %116 = "stablehlo.subtract"(%115, %arg7) : (tensor<20x20xf32>, tensor<20x20xf32>) -> tensor<20x20xf32>
      %117 = "stablehlo.multiply"(%arg11, %97) : (tensor<20x20xf32>, tensor<20x20xf32>) -> tensor<20x20xf32>
      %118 = "stablehlo.subtract"(%116, %117) : (tensor<20x20xf32>, tensor<20x20xf32>) -> tensor<20x20xf32>
      %119 = "stablehlo.broadcast_in_dim"(%89) <{broadcast_dimensions = array<i64>}> : (tensor<f32>) -> tensor<20x20xf32>
      %120 = "stablehlo.multiply"(%arg9, %119) : (tensor<20x20xf32>, tensor<20x20xf32>) -> tensor<20x20xf32>
      %121 = "stablehlo.add"(%118, %120) : (tensor<20x20xf32>, tensor<20x20xf32>) -> tensor<20x20xf32>
      %122 = "stablehlo.multiply"(%arg14, %95) : (tensor<20x20xf32>, tensor<20x20xf32>) -> tensor<20x20xf32>
      %123 = "stablehlo.subtract"(%122, %arg8) : (tensor<20x20xf32>, tensor<20x20xf32>) -> tensor<20x20xf32>
      %124 = "stablehlo.multiply"(%arg12, %97) : (tensor<20x20xf32>, tensor<20x20xf32>) -> tensor<20x20xf32>
      %125 = "stablehlo.subtract"(%123, %124) : (tensor<20x20xf32>, tensor<20x20xf32>) -> tensor<20x20xf32>
      %126 = "stablehlo.broadcast_in_dim"(%89) <{broadcast_dimensions = array<i64>}> : (tensor<f32>) -> tensor<20x20xf32>
      %127 = "stablehlo.multiply"(%arg10, %126) : (tensor<20x20xf32>, tensor<20x20xf32>) -> tensor<20x20xf32>
      %128 = "stablehlo.add"(%125, %127) : (tensor<20x20xf32>, tensor<20x20xf32>) -> tensor<20x20xf32>
      %129 = "stablehlo.multiply"(%114, %128) : (tensor<20x20xf32>, tensor<20x20xf32>) -> tensor<20x20xf32>
      %130 = "stablehlo.subtract"(%121, %129) : (tensor<20x20xf32>, tensor<20x20xf32>) -> tensor<20x20xf32>
      %131 = "stablehlo.divide"(%130, %103) : (tensor<20x20xf32>, tensor<20x20xf32>) -> tensor<20x20xf32>
      %132 = "stablehlo.select"(%106, %131, %arg15) : (tensor<20x20xi1>, tensor<20x20xf32>, tensor<20x20xf32>) -> tensor<20x20xf32>
      %133 = "stablehlo.subtract"(%132, %arg15) : (tensor<20x20xf32>, tensor<20x20xf32>) -> tensor<20x20xf32>
      %134 = "stablehlo.abs"(%133) : (tensor<20x20xf32>) -> tensor<20x20xf32>
      %135 = "stablehlo.constant"() <{value = dense<1.000000e+00> : tensor<f32>}> : () -> tensor<f32>
      %136 = "stablehlo.broadcast_in_dim"(%135) <{broadcast_dimensions = array<i64>}> : (tensor<f32>) -> tensor<20x20xf32>
      %137 = "stablehlo.select"(%106, %134, %136) : (tensor<20x20xi1>, tensor<20x20xf32>, tensor<20x20xf32>) -> tensor<20x20xf32>
      %138 = "stablehlo.abs"(%100) : (tensor<20x20xf32>) -> tensor<20x20xf32>
      %139 = "stablehlo.constant"() <{value = dense<1.1920929E-7> : tensor<f32>}> : () -> tensor<f32>
      %140 = "func.call"(%139) <{callee = @integer_pow}> : (tensor<f32>) -> tensor<f32>
      %141 = "stablehlo.broadcast_in_dim"(%140) <{broadcast_dimensions = array<i64>}> : (tensor<f32>) -> tensor<20x20xf32>
      %142 = "stablehlo.compare"(%138, %141) <{compare_type = #stablehlo<comparison_type FLOAT>, comparison_direction = #stablehlo<comparison_direction GT>}> : (tensor<20x20xf32>, tensor<20x20xf32>) -> tensor<20x20xi1>
      %143 = "stablehlo.constant"() <{value = dense<1.1920929E-7> : tensor<f32>}> : () -> tensor<f32>
      %144 = "stablehlo.broadcast_in_dim"(%143) <{broadcast_dimensions = array<i64>}> : (tensor<f32>) -> tensor<20x20xf32>
      %145 = "stablehlo.multiply"(%arg7, %144) : (tensor<20x20xf32>, tensor<20x20xf32>) -> tensor<20x20xf32>
      %146 = "stablehlo.select"(%142, %145, %arg7) : (tensor<20x20xi1>, tensor<20x20xf32>, tensor<20x20xf32>) -> tensor<20x20xf32>
      %147 = "stablehlo.constant"() <{value = dense<1.1920929E-7> : tensor<f32>}> : () -> tensor<f32>
      %148 = "stablehlo.broadcast_in_dim"(%147) <{broadcast_dimensions = array<i64>}> : (tensor<f32>) -> tensor<20x20xf32>
      %149 = "stablehlo.multiply"(%100, %148) : (tensor<20x20xf32>, tensor<20x20xf32>) -> tensor<20x20xf32>
      %150 = "stablehlo.select"(%142, %149, %100) : (tensor<20x20xi1>, tensor<20x20xf32>, tensor<20x20xf32>) -> tensor<20x20xf32>
      %151 = "stablehlo.constant"() <{value = dense<1.1920929E-7> : tensor<f32>}> : () -> tensor<f32>
      %152 = "stablehlo.broadcast_in_dim"(%151) <{broadcast_dimensions = array<i64>}> : (tensor<f32>) -> tensor<20x20xf32>
      %153 = "stablehlo.multiply"(%arg8, %152) : (tensor<20x20xf32>, tensor<20x20xf32>) -> tensor<20x20xf32>
      %154 = "stablehlo.select"(%142, %153, %arg8) : (tensor<20x20xi1>, tensor<20x20xf32>, tensor<20x20xf32>) -> tensor<20x20xf32>
      %155 = "stablehlo.constant"() <{value = dense<1.1920929E-7> : tensor<f32>}> : () -> tensor<f32>
      %156 = "stablehlo.broadcast_in_dim"(%155) <{broadcast_dimensions = array<i64>}> : (tensor<f32>) -> tensor<20x20xf32>
      %157 = "stablehlo.multiply"(%103, %156) : (tensor<20x20xf32>, tensor<20x20xf32>) -> tensor<20x20xf32>
      %158 = "stablehlo.select"(%142, %157, %103) : (tensor<20x20xi1>, tensor<20x20xf32>, tensor<20x20xf32>) -> tensor<20x20xf32>
      %159 = "stablehlo.constant"() <{value = dense<1.1920929E-7> : tensor<f32>}> : () -> tensor<f32>
      %160 = "stablehlo.broadcast_in_dim"(%159) <{broadcast_dimensions = array<i64>}> : (tensor<f32>) -> tensor<20x20xf32>
      %161 = "stablehlo.multiply"(%arg13, %160) : (tensor<20x20xf32>, tensor<20x20xf32>) -> tensor<20x20xf32>
      %162 = "stablehlo.select"(%142, %161, %arg13) : (tensor<20x20xi1>, tensor<20x20xf32>, tensor<20x20xf32>) -> tensor<20x20xf32>
      %163 = "stablehlo.constant"() <{value = dense<1.1920929E-7> : tensor<f32>}> : () -> tensor<f32>
      %164 = "stablehlo.broadcast_in_dim"(%163) <{broadcast_dimensions = array<i64>}> : (tensor<f32>) -> tensor<20x20xf32>
      %165 = "stablehlo.multiply"(%arg14, %164) : (tensor<20x20xf32>, tensor<20x20xf32>) -> tensor<20x20xf32>
      %166 = "stablehlo.select"(%142, %165, %arg14) : (tensor<20x20xi1>, tensor<20x20xf32>, tensor<20x20xf32>) -> tensor<20x20xf32>
      %167 = "stablehlo.constant"() <{value = dense<1.1920929E-7> : tensor<f32>}> : () -> tensor<f32>
      %168 = "stablehlo.broadcast_in_dim"(%167) <{broadcast_dimensions = array<i64>}> : (tensor<f32>) -> tensor<20x20xf32>
      %169 = "stablehlo.multiply"(%121, %168) : (tensor<20x20xf32>, tensor<20x20xf32>) -> tensor<20x20xf32>
      %170 = "stablehlo.select"(%142, %169, %121) : (tensor<20x20xi1>, tensor<20x20xf32>, tensor<20x20xf32>) -> tensor<20x20xf32>
      %171 = "stablehlo.constant"() <{value = dense<1.1920929E-7> : tensor<f32>}> : () -> tensor<f32>
      %172 = "stablehlo.broadcast_in_dim"(%171) <{broadcast_dimensions = array<i64>}> : (tensor<f32>) -> tensor<20x20xf32>
      %173 = "stablehlo.multiply"(%128, %172) : (tensor<20x20xf32>, tensor<20x20xf32>) -> tensor<20x20xf32>
      %174 = "stablehlo.select"(%142, %173, %128) : (tensor<20x20xi1>, tensor<20x20xf32>, tensor<20x20xf32>) -> tensor<20x20xf32>
      %175 = "stablehlo.constant"() <{value = dense<1.1920929E-7> : tensor<f32>}> : () -> tensor<f32>
      %176 = "stablehlo.broadcast_in_dim"(%175) <{broadcast_dimensions = array<i64>}> : (tensor<f32>) -> tensor<20x20xf32>
      %177 = "stablehlo.compare"(%113, %176) <{compare_type = #stablehlo<comparison_type FLOAT>, comparison_direction = #stablehlo<comparison_direction GT>}> : (tensor<20x20xf32>, tensor<20x20xf32>) -> tensor<20x20xi1>
      %178 = "stablehlo.and"(%arg1, %177) : (tensor<20x20xi1>, tensor<20x20xi1>) -> tensor<20x20xi1>
      %179 = "stablehlo.select"(%arg1, %114, %arg2) : (tensor<20x20xi1>, tensor<20x20xf32>, tensor<20x20xf32>) -> tensor<20x20xf32>
      %180 = "stablehlo.select"(%arg1, %113, %arg3) : (tensor<20x20xi1>, tensor<20x20xf32>, tensor<20x20xf32>) -> tensor<20x20xf32>
      %181 = "stablehlo.select"(%arg1, %92, %arg4) : (tensor<20x20xi1>, tensor<20x20xf32>, tensor<20x20xf32>) -> tensor<20x20xf32>
      %182 = "stablehlo.select"(%arg1, %95, %arg5) : (tensor<20x20xi1>, tensor<20x20xf32>, tensor<20x20xf32>) -> tensor<20x20xf32>
      %183 = "stablehlo.select"(%arg1, %150, %arg7) : (tensor<20x20xi1>, tensor<20x20xf32>, tensor<20x20xf32>) -> tensor<20x20xf32>
      %184 = "stablehlo.select"(%arg1, %158, %arg8) : (tensor<20x20xi1>, tensor<20x20xf32>, tensor<20x20xf32>) -> tensor<20x20xf32>
      %185 = "stablehlo.select"(%arg1, %146, %arg9) : (tensor<20x20xi1>, tensor<20x20xf32>, tensor<20x20xf32>) -> tensor<20x20xf32>
      %186 = "stablehlo.select"(%arg1, %154, %arg10) : (tensor<20x20xi1>, tensor<20x20xf32>, tensor<20x20xf32>) -> tensor<20x20xf32>
      %187 = "stablehlo.select"(%arg1, %162, %arg11) : (tensor<20x20xi1>, tensor<20x20xf32>, tensor<20x20xf32>) -> tensor<20x20xf32>
      %188 = "stablehlo.select"(%arg1, %166, %arg12) : (tensor<20x20xi1>, tensor<20x20xf32>, tensor<20x20xf32>) -> tensor<20x20xf32>
      %189 = "stablehlo.select"(%arg1, %170, %arg13) : (tensor<20x20xi1>, tensor<20x20xf32>, tensor<20x20xf32>) -> tensor<20x20xf32>
      %190 = "stablehlo.select"(%arg1, %174, %arg14) : (tensor<20x20xi1>, tensor<20x20xf32>, tensor<20x20xf32>) -> tensor<20x20xf32>
      %191 = "stablehlo.select"(%arg1, %132, %arg15) : (tensor<20x20xi1>, tensor<20x20xf32>, tensor<20x20xf32>) -> tensor<20x20xf32>
      "stablehlo.return"(%178, %179, %180, %181, %182, %89, %183, %184, %185, %186, %187, %188, %189, %190, %191) : (tensor<20x20xi1>, tensor<20x20xf32>, tensor<20x20xf32>, tensor<20x20xf32>, tensor<20x20xf32>, tensor<f32>, tensor<20x20xf32>, tensor<20x20xf32>, tensor<20x20xf32>, tensor<20x20xf32>, tensor<20x20xf32>, tensor<20x20xf32>, tensor<20x20xf32>, tensor<20x20xf32>, tensor<20x20xf32>) -> ()
    }) : (tensor<20x20xi1>, tensor<20x20xf32>, tensor<20x20xf32>, tensor<20x20xf32>, tensor<20x20xf32>, tensor<f32>, tensor<20x20xf32>, tensor<20x20xf32>, tensor<20x20xf32>, tensor<20x20xf32>, tensor<20x20xf32>, tensor<20x20xf32>, tensor<20x20xf32>, tensor<20x20xf32>, tensor<20x20xf32>) -> (tensor<20x20xi1>, tensor<20x20xf32>, tensor<20x20xf32>, tensor<20x20xf32>, tensor<20x20xf32>, tensor<f32>, tensor<20x20xf32>, tensor<20x20xf32>, tensor<20x20xf32>, tensor<20x20xf32>, tensor<20x20xf32>, tensor<20x20xf32>, tensor<20x20xf32>, tensor<20x20xf32>, tensor<20x20xf32>)
    %74 = "stablehlo.multiply"(%73#1, %31) : (tensor<20x20xf32>, tensor<20x20xf32>) -> tensor<20x20xf32>
    %75 = "stablehlo.constant"() <{value = dense<1.000000e+00> : tensor<f32>}> : () -> tensor<f32>
    %76 = "stablehlo.broadcast_in_dim"(%75) <{broadcast_dimensions = array<i64>}> : (tensor<f32>) -> tensor<20x20xf32>
    %77 = "stablehlo.subtract"(%76, %43) : (tensor<20x20xf32>, tensor<20x20xf32>) -> tensor<20x20xf32>
    %78 = "stablehlo.select"(%18, %77, %74) : (tensor<20x20xi1>, tensor<20x20xf32>, tensor<20x20xf32>) -> tensor<20x20xf32>
    %79 = "stablehlo.constant"() <{value = dense<0x7F800000> : tensor<f32>}> : () -> tensor<f32>
    %80 = "stablehlo.broadcast_in_dim"(%79) <{broadcast_dimensions = array<i64>}> : (tensor<f32>) -> tensor<20x20xf32>
    %81 = "stablehlo.compare"(%5#1, %80) <{compare_type = #stablehlo<comparison_type FLOAT>, comparison_direction = #stablehlo<comparison_direction EQ>}> : (tensor<20x20xf32>, tensor<20x20xf32>) -> tensor<20x20xi1>
    %82 = "stablehlo.constant"() <{value = dense<0.000000e+00> : tensor<f32>}> : () -> tensor<f32>
    %83 = "stablehlo.broadcast_in_dim"(%82) <{broadcast_dimensions = array<i64>}> : (tensor<f32>) -> tensor<20x20xf32>
    %84 = "stablehlo.select"(%81, %83, %78) : (tensor<20x20xi1>, tensor<20x20xf32>, tensor<20x20xf32>) -> tensor<20x20xf32>
    %85 = "stablehlo.constant"() <{value = dense<1.000000e+00> : tensor<f32>}> : () -> tensor<f32>
    %86 = "stablehlo.broadcast_in_dim"(%85) <{broadcast_dimensions = array<i64>}> : (tensor<f32>) -> tensor<20x20xf32>
    %87 = "stablehlo.select"(%13, %86, %84) : (tensor<20x20xi1>, tensor<20x20xf32>, tensor<20x20xf32>) -> tensor<20x20xf32>
    "stablehlo.custom_call"(%87, %6) <{call_target_name = "check.expect_almost_eq", has_side_effect = true}> : (tensor<20x20xf32>, tensor<20x20xf32>) -> ()
    "func.return"(%87) : (tensor<20x20xf32>) -> ()
  }) : () -> ()
  "func.func"() <{function_type = () -> (tensor<20x20xf32>, tensor<20x20xf32>), res_attrs = [{mhlo.layout_mode = "default"}, {mhlo.layout_mode = "default"}], sym_name = "inputs", sym_visibility = "private"}> ({
    %3 = "stablehlo.constant"() <{value = dense<"…"> : tensor<20x20xf32>}> : () -> tensor<20x20xf32>
    %4 = "stablehlo.constant"() <{value = dense<"…"> : tensor<20x20xf32>}> : () -> tensor<20x20xf32>
    "func.return"(%3, %4) : (tensor<20x20xf32>, tensor<20x20xf32>) -> ()
  }) : () -> ()
  "func.func"() <{function_type = () -> tensor<20x20xf32>, res_attrs = [{mhlo.layout_mode = "default"}], sym_name = "expected", sym_visibility = "private"}> ({
    %2 = "stablehlo.constant"() <{value = dense<"…"> : tensor<20x20xf32>}> : () -> tensor<20x20xf32>
    "func.return"(%2) : (tensor<20x20xf32>) -> ()
  }) : () -> ()
  "func.func"() <{function_type = (tensor<f32>) -> tensor<f32>, sym_name = "integer_pow", sym_visibility = "private"}> ({
  ^bb0(%arg0: tensor<f32>):
    %0 = "stablehlo.constant"() <{value = dense<1.000000e+00> : tensor<f32>}> : () -> tensor<f32>
    %1 = "stablehlo.divide"(%0, %arg0) : (tensor<f32>, tensor<f32>) -> tensor<f32>
    "func.return"(%1) : (tensor<f32>) -> ()
  }) : () -> ()
}) {mhlo.num_partitions = 1 : i32, mhlo.num_replicas = 1 : i32} : () -> ()

