"builtin.module"() <{sym_name = "jit_main"}> ({
  "func.func"() <{function_type = () -> tensor<2x3xf32>, res_attrs = [{jax.result_info = "", mhlo.layout_mode = "default"}], sym_name = "main", sym_visibility = "public"}> ({
    %3 = "stablehlo.constant"() <{value = dense<2> : tensor<1x3x1xi64>}> : () -> tensor<1x3x1xi64>
    %4:2 = "func.call"() <{callee = @inputs}> : () -> (tensor<2x3xf32>, tensor<2x1x3xf32>)
    %5 = "func.call"() <{callee = @expected}> : () -> tensor<2x3xf32>
    %6 = "stablehlo.scatter"(%4#0, %3, %4#1) <{scatter_dimension_numbers = #stablehlo.scatter<update_window_dims = [0], inserted_window_dims = [1], scatter_dims_to_operand_dims = [1], index_vector_dim = 2>}> ({
    ^bb0(%arg0: tensor<f32>, %arg1: tensor<f32>):
      %7 = "stablehlo.multiply"(%arg0, %arg1) : (tensor<f32>, tensor<f32>) -> tensor<f32>
      "stablehlo.return"(%7) : (tensor<f32>) -> ()
    }) : (tensor<2x3xf32>, tensor<1x3x1xi64>, tensor<2x1x3xf32>) -> tensor<2x3xf32>
    "stablehlo.custom_call"(%6, %5) <{call_target_name = "check.expect_close", has_side_effect = true}> : (tensor<2x3xf32>, tensor<2x3xf32>) -> ()
    "func.return"(%6) : (tensor<2x3xf32>) -> ()
  }) : () -> ()
  "func.func"() <{function_type = () -> (tensor<2x3xf32>, tensor<2x1x3xf32>), res_attrs = [{mhlo.layout_mode = "default"}, {mhlo.layout_mode = "default"}], sym_name = "inputs", sym_visibility = "private"}> ({
    %1 = "stablehlo.constant"() <{value = dense<[[2.77936172, 4.22604084, 2.92753291], [-0.224596947, -1.7388103, 2.00413609]]> : tensor<2x3xf32>}> : () -> tensor<2x3xf32>
    %2 = "stablehlo.constant"() <{value = dense<[[[-4.39102125, 5.139260e-01, -2.42424226]], [[-5.09330082, 3.56141615, 1.74076855]]]> : tensor<2x1x3xf32>}> : () -> tensor<2x1x3xf32>
    "func.return"(%1, %2) : (tensor<2x3xf32>, tensor<2x1x3xf32>) -> ()
  }) : () -> ()
  "func.func"() <{function_type = () -> tensor<2x3xf32>, res_attrs = [{mhlo.layout_mode = "default"}], sym_name = "expected", sym_visibility = "private"}> ({
    %0 = "stablehlo.constant"() <{value = dense<[[2.77936172, 4.22604084, 16.0156269], [-0.224596947, -1.7388103, -63.283474]]> : tensor<2x3xf32>}> : () -> tensor<2x3xf32>
    "func.return"(%0) : (tensor<2x3xf32>) -> ()
  }) : () -> ()
}) {mhlo.num_partitions = 1 : i32, mhlo.num_replicas = 1 : i32} : () -> ()

