"builtin.module"() <{sym_name = "jit_main"}> ({
  "func.func"() <{function_type = () -> tensor<20x20xf32>, res_attrs = [{jax.result_info = "", mhlo.layout_mode = "default"}], sym_name = "main", sym_visibility = "public"}> ({
    %2 = "func.call"() <{callee = @inputs}> : () -> tensor<20x20xf32>
    %3 = "func.call"() <{callee = @expected}> : () -> tensor<20x20xf32>
    %4 = "stablehlo.abs"(%2) : (tensor<20x20xf32>) -> tensor<20x20xf32>
    %5 = "stablehlo.constant"() <{value = dense<5.000000e-01> : tensor<f32>}> : () -> tensor<f32>
    %6 = "stablehlo.broadcast_in_dim"(%5) <{broadcast_dimensions = array<i64>}> : (tensor<f32>) -> tensor<20x20xf32>
    %7 = "stablehlo.constant"() <{value = dense<2.000000e+00> : tensor<f32>}> : () -> tensor<f32>
    %8 = "stablehlo.broadcast_in_dim"(%7) <{broadcast_dimensions = array<i64>}> : (tensor<f32>) -> tensor<20x20xf32>
    %9 = "stablehlo.constant"() <{value = dense<3.200000e+01> : tensor<f32>}> : () -> tensor<f32>
    %10 = "stablehlo.broadcast_in_dim"(%9) <{broadcast_dimensions = array<i64>}> : (tensor<f32>) -> tensor<20x20xf32>
    %11 = "stablehlo.multiply"(%6, %4) : (tensor<20x20xf32>, tensor<20x20xf32>) -> tensor<20x20xf32>
    %12 = "stablehlo.subtract"(%11, %8) : (tensor<20x20xf32>, tensor<20x20xf32>) -> tensor<20x20xf32>
    %13 = "stablehlo.constant"() <{value = dense<0.000000e+00> : tensor<f32>}> : () -> tensor<f32>
    %14 = "stablehlo.broadcast_in_dim"(%13) <{broadcast_dimensions = array<i64>}> : (tensor<f32>) -> tensor<20x20xf32>
    %15 = "stablehlo.constant"() <{value = dense<0.000000e+00> : tensor<f32>}> : () -> tensor<f32>
    %16 = "stablehlo.broadcast_in_dim"(%15) <{broadcast_dimensions = array<i64>}> : (tensor<f32>) -> tensor<20x20xf32>
    %17 = "stablehlo.constant"() <{value = dense<0.000000e+00> : tensor<f32>}> : () -> tensor<f32>
    %18 = "stablehlo.broadcast_in_dim"(%17) <{broadcast_dimensions = array<i64>}> : (tensor<f32>) -> tensor<20x20xf32>
    %19 = "stablehlo.multiply"(%12, %14) : (tensor<20x20xf32>, tensor<20x20xf32>) -> tensor<20x20xf32>
    %20 = "stablehlo.subtract"(%19, %16) : (tensor<20x20xf32>, tensor<20x20xf32>) -> tensor<20x20xf32>
    %21 = "stablehlo.constant"() <{value = dense<-1.300025009986248E-8> : tensor<f64>}> : () -> tensor<f64>
    %22 = "stablehlo.convert"(%21) : (tensor<f64>) -> tensor<f32>
    %23 = "stablehlo.broadcast_in_dim"(%22) <{broadcast_dimensions = array<i64>}> : (tensor<f32>) -> tensor<20x20xf32>
    %24 = "stablehlo.add"(%20, %23) : (tensor<20x20xf32>, tensor<20x20xf32>) -> tensor<20x20xf32>
    %25 = "stablehlo.multiply"(%12, %24) : (tensor<20x20xf32>, tensor<20x20xf32>) -> tensor<20x20xf32>
    %26 = "stablehlo.subtract"(%25, %14) : (tensor<20x20xf32>, tensor<20x20xf32>) -> tensor<20x20xf32>
    %27 = "stablehlo.constant"() <{value = dense<6.0469950225419186E-8> : tensor<f64>}> : () -> tensor<f64>
    %28 = "stablehlo.convert"(%27) : (tensor<f64>) -> tensor<f32>
    %29 = "stablehlo.broadcast_in_dim"(%28) <{broadcast_dimensions = array<i64>}> : (tensor<f32>) -> tensor<20x20xf32>
    %30 = "stablehlo.add"(%26, %29) : (tensor<20x20xf32>, tensor<20x20xf32>) -> tensor<20x20xf32>
    %31 = "stablehlo.multiply"(%12, %30) : (tensor<20x20xf32>, tensor<20x20xf32>) -> tensor<20x20xf32>
    %32 = "stablehlo.subtract"(%31, %24) : (tensor<20x20xf32>, tensor<20x20xf32>) -> tensor<20x20xf32>
    %33 = "stablehlo.constant"() <{value = dense<-2.6707938539406119E-7> : tensor<f64>}> : () -> tensor<f64>
    %34 = "stablehlo.convert"(%33) : (tensor<f64>) -> tensor<f32>
    %35 = "stablehlo.broadcast_in_dim"(%34) <{broadcast_dimensions = array<i64>}> : (tensor<f32>) -> tensor<20x20xf32>
    %36 = "stablehlo.add"(%32, %35) : (tensor<20x20xf32>, tensor<20x20xf32>) -> tensor<20x20xf32>
    %37 = "stablehlo.multiply"(%12, %36) : (tensor<20x20xf32>, tensor<20x20xf32>) -> tensor<20x20xf32>
    %38 = "stablehlo.subtract"(%37, %30) : (tensor<20x20xf32>, tensor<20x20xf32>) -> tensor<20x20xf32>
    %39 = "stablehlo.constant"() <{value = dense<1.1173875391201037E-6> : tensor<f64>}> : () -> tensor<f64>
    %40 = "stablehlo.convert"(%39) : (tensor<f64>) -> tensor<f32>
    %41 = "stablehlo.broadcast_in_dim"(%40) <{broadcast_dimensions = array<i64>}> : (tensor<f32>) -> tensor<20x20xf32>
    %42 = "stablehlo.add"(%38, %41) : (tensor<20x20xf32>, tensor<20x20xf32>) -> tensor<20x20xf32>
    %43 = "stablehlo.multiply"(%12, %42) : (tensor<20x20xf32>, tensor<20x20xf32>) -> tensor<20x20xf32>
    %44 = "stablehlo.subtract"(%43, %36) : (tensor<20x20xf32>, tensor<20x20xf32>) -> tensor<20x20xf32>
    %45 = "stablehlo.constant"() <{value = dense<-4.4167383584587505E-6> : tensor<f64>}> : () -> tensor<f64>
    %46 = "stablehlo.convert"(%45) : (tensor<f64>) -> tensor<f32>
    %47 = "stablehlo.broadcast_in_dim"(%46) <{broadcast_dimensions = array<i64>}> : (tensor<f32>) -> tensor<20x20xf32>
    %48 = "stablehlo.add"(%44, %47) : (tensor<20x20xf32>, tensor<20x20xf32>) -> tensor<20x20xf32>
    %49 = "stablehlo.multiply"(%12, %48) : (tensor<20x20xf32>, tensor<20x20xf32>) -> tensor<20x20xf32>
    %50 = "stablehlo.subtract"(%49, %42) : (tensor<20x20xf32>, tensor<20x20xf32>) -> tensor<20x20xf32>
    %51 = "stablehlo.constant"() <{value = dense<1.6448448070728896E-5> : tensor<f64>}> : () -> tensor<f64>
    %52 = "stablehlo.convert"(%51) : (tensor<f64>) -> tensor<f32>
    %53 = "stablehlo.broadcast_in_dim"(%52) <{broadcast_dimensions = array<i64>}> : (tensor<f32>) -> tensor<20x20xf32>
    %54 = "stablehlo.add"(%50, %53) : (tensor<20x20xf32>, tensor<20x20xf32>) -> tensor<20x20xf32>
    %55 = "stablehlo.multiply"(%12, %54) : (tensor<20x20xf32>, tensor<20x20xf32>) -> tensor<20x20xf32>
    %56 = "stablehlo.subtract"(%55, %48) : (tensor<20x20xf32>, tensor<20x20xf32>) -> tensor<20x20xf32>
    %57 = "stablehlo.constant"() <{value = dense<-5.754195010082104E-5> : tensor<f64>}> : () -> tensor<f64>
    %58 = "stablehlo.convert"(%57) : (tensor<f64>) -> tensor<f32>
    %59 = "stablehlo.broadcast_in_dim"(%58) <{broadcast_dimensions = array<i64>}> : (tensor<f32>) -> tensor<20x20xf32>
    %60 = "stablehlo.add"(%56, %59) : (tensor<20x20xf32>, tensor<20x20xf32>) -> tensor<20x20xf32>
    %61 = "stablehlo.multiply"(%12, %60) : (tensor<20x20xf32>, tensor<20x20xf32>) -> tensor<20x20xf32>
    %62 = "stablehlo.subtract"(%61, %54) : (tensor<20x20xf32>, tensor<20x20xf32>) -> tensor<20x20xf32>
    %63 = "stablehlo.constant"() <{value = dense<1.8850288509584165E-4> : tensor<f64>}> : () -> tensor<f64>
    %64 = "stablehlo.convert"(%63) : (tensor<f64>) -> tensor<f32>
    %65 = "stablehlo.broadcast_in_dim"(%64) <{broadcast_dimensions = array<i64>}> : (tensor<f32>) -> tensor<20x20xf32>
    %66 = "stablehlo.add"(%62, %65) : (tensor<20x20xf32>, tensor<20x20xf32>) -> tensor<20x20xf32>
    %67 = "stablehlo.multiply"(%12, %66) : (tensor<20x20xf32>, tensor<20x20xf32>) -> tensor<20x20xf32>
    %68 = "stablehlo.subtract"(%67, %60) : (tensor<20x20xf32>, tensor<20x20xf32>) -> tensor<20x20xf32>
    %69 = "stablehlo.constant"() <{value = dense<-5.7637557453858236E-4> : tensor<f64>}> : () -> tensor<f64>
    %70 = "stablehlo.convert"(%69) : (tensor<f64>) -> tensor<f32>
    %71 = "stablehlo.broadcast_in_dim"(%70) <{broadcast_dimensions = array<i64>}> : (tensor<f32>) -> tensor<20x20xf32>
    %72 = "stablehlo.add"(%68, %71) : (tensor<20x20xf32>, tensor<20x20xf32>) -> tensor<20x20xf32>
    %73 = "stablehlo.multiply"(%12, %72) : (tensor<20x20xf32>, tensor<20x20xf32>) -> tensor<20x20xf32>
    %74 = "stablehlo.subtract"(%73, %66) : (tensor<20x20xf32>, tensor<20x20xf32>) -> tensor<20x20xf32>
    %75 = "stablehlo.constant"() <{value = dense<0.0016394756169413357> : tensor<f64>}> : () -> tensor<f64>
    %76 = "stablehlo.convert"(%75) : (tensor<f64>) -> tensor<f32>
    %77 = "stablehlo.broadcast_in_dim"(%76) <{broadcast_dimensions = array<i64>}> : (tensor<f32>) -> tensor<20x20xf32>
    %78 = "stablehlo.add"(%74, %77) : (tensor<20x20xf32>, tensor<20x20xf32>) -> tensor<20x20xf32>
    %79 = "stablehlo.multiply"(%12, %78) : (tensor<20x20xf32>, tensor<20x20xf32>) -> tensor<20x20xf32>
    %80 = "stablehlo.subtract"(%79, %72) : (tensor<20x20xf32>, tensor<20x20xf32>) -> tensor<20x20xf32>
    %81 = "stablehlo.constant"() <{value = dense<-0.0043243099950505759> : tensor<f64>}> : () -> tensor<f64>
    %82 = "stablehlo.convert"(%81) : (tensor<f64>) -> tensor<f32>
    %83 = "stablehlo.broadcast_in_dim"(%82) <{broadcast_dimensions = array<i64>}> : (tensor<f32>) -> tensor<20x20xf32>
    %84 = "stablehlo.add"(%80, %83) : (tensor<20x20xf32>, tensor<20x20xf32>) -> tensor<20x20xf32>
    %85 = "stablehlo.multiply"(%12, %84) : (tensor<20x20xf32>, tensor<20x20xf32>) -> tensor<20x20xf32>
    %86 = "stablehlo.subtract"(%85, %78) : (tensor<20x20xf32>, tensor<20x20xf32>) -> tensor<20x20xf32>
    %87 = "stablehlo.constant"() <{value = dense<0.010546460394594998> : tensor<f64>}> : () -> tensor<f64>
    %88 = "stablehlo.convert"(%87) : (tensor<f64>) -> tensor<f32>
    %89 = "stablehlo.broadcast_in_dim"(%88) <{broadcast_dimensions = array<i64>}> : (tensor<f32>) -> tensor<20x20xf32>
    %90 = "stablehlo.add"(%86, %89) : (tensor<20x20xf32>, tensor<20x20xf32>) -> tensor<20x20xf32>
    %91 = "stablehlo.multiply"(%12, %90) : (tensor<20x20xf32>, tensor<20x20xf32>) -> tensor<20x20xf32>
    %92 = "stablehlo.subtract"(%91, %84) : (tensor<20x20xf32>, tensor<20x20xf32>) -> tensor<20x20xf32>
    %93 = "stablehlo.constant"() <{value = dense<-0.023737414805899471> : tensor<f64>}> : () -> tensor<f64>
    %94 = "stablehlo.convert"(%93) : (tensor<f64>) -> tensor<f32>
    %95 = "stablehlo.broadcast_in_dim"(%94) <{broadcast_dimensions = array<i64>}> : (tensor<f32>) -> tensor<20x20xf32>
    %96 = "stablehlo.add"(%92, %95) : (tensor<20x20xf32>, tensor<20x20xf32>) -> tensor<20x20xf32>
    %97 = "stablehlo.multiply"(%12, %96) : (tensor<20x20xf32>, tensor<20x20xf32>) -> tensor<20x20xf32>
    %98 = "stablehlo.subtract"(%97, %90) : (tensor<20x20xf32>, tensor<20x20xf32>) -> tensor<20x20xf32>
    %99 = "stablehlo.constant"() <{value = dense<0.049305284239670712> : tensor<f64>}> : () -> tensor<f64>
    %100 = "stablehlo.convert"(%99) : (tensor<f64>) -> tensor<f32>
    %101 = "stablehlo.broadcast_in_dim"(%100) <{broadcast_dimensions = array<i64>}> : (tensor<f32>) -> tensor<20x20xf32>
    %102 = "stablehlo.add"(%98, %101) : (tensor<20x20xf32>, tensor<20x20xf32>) -> tensor<20x20xf32>
    %103 = "stablehlo.multiply"(%12, %102) : (tensor<20x20xf32>, tensor<20x20xf32>) -> tensor<20x20xf32>
    %104 = "stablehlo.subtract"(%103, %96) : (tensor<20x20xf32>, tensor<20x20xf32>) -> tensor<20x20xf32>
    %105 = "stablehlo.constant"() <{value = dense<-0.094901097048047639> : tensor<f64>}> : () -> tensor<f64>
    %106 = "stablehlo.convert"(%105) : (tensor<f64>) -> tensor<f32>
    %107 = "stablehlo.broadcast_in_dim"(%106) <{broadcast_dimensions = array<i64>}> : (tensor<f32>) -> tensor<20x20xf32>
    %108 = "stablehlo.add"(%104, %107) : (tensor<20x20xf32>, tensor<20x20xf32>) -> tensor<20x20xf32>
    %109 = "stablehlo.multiply"(%12, %108) : (tensor<20x20xf32>, tensor<20x20xf32>) -> tensor<20x20xf32>
    %110 = "stablehlo.subtract"(%109, %102) : (tensor<20x20xf32>, tensor<20x20xf32>) -> tensor<20x20xf32>
    %111 = "stablehlo.constant"() <{value = dense<0.17162090152220877> : tensor<f64>}> : () -> tensor<f64>
    %112 = "stablehlo.convert"(%111) : (tensor<f64>) -> tensor<f32>
    %113 = "stablehlo.broadcast_in_dim"(%112) <{broadcast_dimensions = array<i64>}> : (tensor<f32>) -> tensor<20x20xf32>
    %114 = "stablehlo.add"(%110, %113) : (tensor<20x20xf32>, tensor<20x20xf32>) -> tensor<20x20xf32>
    %115 = "stablehlo.multiply"(%12, %114) : (tensor<20x20xf32>, tensor<20x20xf32>) -> tensor<20x20xf32>
    %116 = "stablehlo.subtract"(%115, %108) : (tensor<20x20xf32>, tensor<20x20xf32>) -> tensor<20x20xf32>
    %117 = "stablehlo.constant"() <{value = dense<-0.3046826723431984> : tensor<f64>}> : () -> tensor<f64>
    %118 = "stablehlo.convert"(%117) : (tensor<f64>) -> tensor<f32>
    %119 = "stablehlo.broadcast_in_dim"(%118) <{broadcast_dimensions = array<i64>}> : (tensor<f32>) -> tensor<20x20xf32>
    %120 = "stablehlo.add"(%116, %119) : (tensor<20x20xf32>, tensor<20x20xf32>) -> tensor<20x20xf32>
    %121 = "stablehlo.multiply"(%12, %120) : (tensor<20x20xf32>, tensor<20x20xf32>) -> tensor<20x20xf32>
    %122 = "stablehlo.subtract"(%121, %114) : (tensor<20x20xf32>, tensor<20x20xf32>) -> tensor<20x20xf32>
    %123 = "stablehlo.constant"() <{value = dense<0.67679527440947607> : tensor<f64>}> : () -> tensor<f64>
    %124 = "stablehlo.convert"(%123) : (tensor<f64>) -> tensor<f32>
    %125 = "stablehlo.broadcast_in_dim"(%124) <{broadcast_dimensions = array<i64>}> : (tensor<f32>) -> tensor<20x20xf32>
    %126 = "stablehlo.add"(%122, %125) : (tensor<20x20xf32>, tensor<20x20xf32>) -> tensor<20x20xf32>
    %127 = "stablehlo.subtract"(%126, %114) : (tensor<20x20xf32>, tensor<20x20xf32>) -> tensor<20x20xf32>
    %128 = "stablehlo.constant"() <{value = dense<5.000000e-01> : tensor<f32>}> : () -> tensor<f32>
    %129 = "stablehlo.broadcast_in_dim"(%128) <{broadcast_dimensions = array<i64>}> : (tensor<f32>) -> tensor<20x20xf32>
    %130 = "stablehlo.multiply"(%129, %127) : (tensor<20x20xf32>, tensor<20x20xf32>) -> tensor<20x20xf32>
    %131 = "stablehlo.divide"(%10, %4) : (tensor<20x20xf32>, tensor<20x20xf32>) -> tensor<20x20xf32>
    %132 = "stablehlo.subtract"(%131, %8) : (tensor<20x20xf32>, tensor<20x20xf32>) -> tensor<20x20xf32>
    %133 = "stablehlo.constant"() <{value = dense<0.000000e+00> : tensor<f32>}> : () -> tensor<f32>
    %134 = "stablehlo.broadcast_in_dim"(%133) <{broadcast_dimensions = array<i64>}> : (tensor<f32>) -> tensor<20x20xf32>
    %135 = "stablehlo.constant"() <{value = dense<0.000000e+00> : tensor<f32>}> : () -> tensor<f32>
    %136 = "stablehlo.broadcast_in_dim"(%135) <{broadcast_dimensions = array<i64>}> : (tensor<f32>) -> tensor<20x20xf32>
    %137 = "stablehlo.constant"() <{value = dense<0.000000e+00> : tensor<f32>}> : () -> tensor<f32>
    %138 = "stablehlo.broadcast_in_dim"(%137) <{broadcast_dimensions = array<i64>}> : (tensor<f32>) -> tensor<20x20xf32>
    %139 = "stablehlo.multiply"(%132, %134) : (tensor<20x20xf32>, tensor<20x20xf32>) -> tensor<20x20xf32>
    %140 = "stablehlo.subtract"(%139, %136) : (tensor<20x20xf32>, tensor<20x20xf32>) -> tensor<20x20xf32>
    %141 = "stablehlo.constant"() <{value = dense<3.3962320257083865E-9> : tensor<f64>}> : () -> tensor<f64>
    %142 = "stablehlo.convert"(%141) : (tensor<f64>) -> tensor<f32>
    %143 = "stablehlo.broadcast_in_dim"(%142) <{broadcast_dimensions = array<i64>}> : (tensor<f32>) -> tensor<20x20xf32>
    %144 = "stablehlo.add"(%140, %143) : (tensor<20x20xf32>, tensor<20x20xf32>) -> tensor<20x20xf32>
    %145 = "stablehlo.multiply"(%132, %144) : (tensor<20x20xf32>, tensor<20x20xf32>) -> tensor<20x20xf32>
    %146 = "stablehlo.subtract"(%145, %134) : (tensor<20x20xf32>, tensor<20x20xf32>) -> tensor<20x20xf32>
    %147 = "stablehlo.constant"() <{value = dense<2.266668990498178E-8> : tensor<f64>}> : () -> tensor<f64>
    %148 = "stablehlo.convert"(%147) : (tensor<f64>) -> tensor<f32>
    %149 = "stablehlo.broadcast_in_dim"(%148) <{broadcast_dimensions = array<i64>}> : (tensor<f32>) -> tensor<20x20xf32>
    %150 = "stablehlo.add"(%146, %149) : (tensor<20x20xf32>, tensor<20x20xf32>) -> tensor<20x20xf32>
    %151 = "stablehlo.multiply"(%132, %150) : (tensor<20x20xf32>, tensor<20x20xf32>) -> tensor<20x20xf32>
    %152 = "stablehlo.subtract"(%151, %144) : (tensor<20x20xf32>, tensor<20x20xf32>) -> tensor<20x20xf32>
    %153 = "stablehlo.constant"() <{value = dense<2.0489185894690638E-7> : tensor<f64>}> : () -> tensor<f64>
    %154 = "stablehlo.convert"(%153) : (tensor<f64>) -> tensor<f32>
    %155 = "stablehlo.broadcast_in_dim"(%154) <{broadcast_dimensions = array<i64>}> : (tensor<f32>) -> tensor<20x20xf32>
    %156 = "stablehlo.add"(%152, %155) : (tensor<20x20xf32>, tensor<20x20xf32>) -> tensor<20x20xf32>
    %157 = "stablehlo.multiply"(%132, %156) : (tensor<20x20xf32>, tensor<20x20xf32>) -> tensor<20x20xf32>
    %158 = "stablehlo.subtract"(%157, %150) : (tensor<20x20xf32>, tensor<20x20xf32>) -> tensor<20x20xf32>
    %159 = "stablehlo.constant"() <{value = dense<2.8913705208347567E-6> : tensor<f64>}> : () -> tensor<f64>
    %160 = "stablehlo.convert"(%159) : (tensor<f64>) -> tensor<f32>
    %161 = "stablehlo.broadcast_in_dim"(%160) <{broadcast_dimensions = array<i64>}> : (tensor<f32>) -> tensor<20x20xf32>
    %162 = "stablehlo.add"(%158, %161) : (tensor<20x20xf32>, tensor<20x20xf32>) -> tensor<20x20xf32>
    %163 = "stablehlo.multiply"(%132, %162) : (tensor<20x20xf32>, tensor<20x20xf32>) -> tensor<20x20xf32>
    %164 = "stablehlo.subtract"(%163, %156) : (tensor<20x20xf32>, tensor<20x20xf32>) -> tensor<20x20xf32>
    %165 = "stablehlo.constant"() <{value = dense<6.8897583469168245E-5> : tensor<f64>}> : () -> tensor<f64>
    %166 = "stablehlo.convert"(%165) : (tensor<f64>) -> tensor<f32>
    %167 = "stablehlo.broadcast_in_dim"(%166) <{broadcast_dimensions = array<i64>}> : (tensor<f32>) -> tensor<20x20xf32>
    %168 = "stablehlo.add"(%164, %167) : (tensor<20x20xf32>, tensor<20x20xf32>) -> tensor<20x20xf32>
    %169 = "stablehlo.multiply"(%132, %168) : (tensor<20x20xf32>, tensor<20x20xf32>) -> tensor<20x20xf32>
    %170 = "stablehlo.subtract"(%169, %162) : (tensor<20x20xf32>, tensor<20x20xf32>) -> tensor<20x20xf32>
    %171 = "stablehlo.constant"() <{value = dense<0.0033691164782556943> : tensor<f64>}> : () -> tensor<f64>
    %172 = "stablehlo.convert"(%171) : (tensor<f64>) -> tensor<f32>
    %173 = "stablehlo.broadcast_in_dim"(%172) <{broadcast_dimensions = array<i64>}> : (tensor<f32>) -> tensor<20x20xf32>
    %174 = "stablehlo.add"(%170, %173) : (tensor<20x20xf32>, tensor<20x20xf32>) -> tensor<20x20xf32>
    %175 = "stablehlo.multiply"(%132, %174) : (tensor<20x20xf32>, tensor<20x20xf32>) -> tensor<20x20xf32>
    %176 = "stablehlo.subtract"(%175, %168) : (tensor<20x20xf32>, tensor<20x20xf32>) -> tensor<20x20xf32>
    %177 = "stablehlo.constant"() <{value = dense<0.80449041101410879> : tensor<f64>}> : () -> tensor<f64>
    %178 = "stablehlo.convert"(%177) : (tensor<f64>) -> tensor<f32>
    %179 = "stablehlo.broadcast_in_dim"(%178) <{broadcast_dimensions = array<i64>}> : (tensor<f32>) -> tensor<20x20xf32>
    %180 = "stablehlo.add"(%176, %179) : (tensor<20x20xf32>, tensor<20x20xf32>) -> tensor<20x20xf32>
    %181 = "stablehlo.subtract"(%180, %168) : (tensor<20x20xf32>, tensor<20x20xf32>) -> tensor<20x20xf32>
    %182 = "stablehlo.constant"() <{value = dense<5.000000e-01> : tensor<f32>}> : () -> tensor<f32>
    %183 = "stablehlo.broadcast_in_dim"(%182) <{broadcast_dimensions = array<i64>}> : (tensor<f32>) -> tensor<20x20xf32>
    %184 = "stablehlo.multiply"(%183, %181) : (tensor<20x20xf32>, tensor<20x20xf32>) -> tensor<20x20xf32>
    %185 = "stablehlo.sqrt"(%4) : (tensor<20x20xf32>) -> tensor<20x20xf32>
    %186 = "stablehlo.divide"(%184, %185) : (tensor<20x20xf32>, tensor<20x20xf32>) -> tensor<20x20xf32>
    %187 = "stablehlo.constant"() <{value = dense<8.000000e+00> : tensor<f32>}> : () -> tensor<f32>
    %188 = "stablehlo.broadcast_in_dim"(%187) <{broadcast_dimensions = array<i64>}> : (tensor<f32>) -> tensor<20x20xf32>
    %189 = "stablehlo.compare"(%4, %188) <{compare_type = #stablehlo<comparison_type FLOAT>, comparison_direction = #stablehlo<comparison_direction LE>}> : (tensor<20x20xf32>, tensor<20x20xf32>) -> tensor<20x20xi1>
    %190 = "stablehlo.select"(%189, %130, %186) : (tensor<20x20xi1>, tensor<20x20xf32>, tensor<20x20xf32>) -> tensor<20x20xf32>
    "stablehlo.custom_call"(%190, %3) <{call_target_name = "check.expect_almost_eq", has_side_effect = true}> : (tensor<20x20xf32>, tensor<20x20xf32>) -> ()
    "func.return"(%190) : (tensor<20x20xf32>) -> ()
  }) : () -> ()
  "func.func"() <{function_type = () -> tensor<20x20xf32>, res_attrs = [{mhlo.layout_mode = "default"}], sym_name = "inputs", sym_visibility = "private"}> ({
    %1 = "stablehlo.constant"() <{value = dense<"…"> : tensor<20x20xf32>}> : () -> tensor<20x20xf32>
    "func.return"(%1) : (tensor<20x20xf32>) -> ()
  }) : () -> ()
  "func.func"() <{function_type = () -> tensor<20x20xf32>, res_attrs = [{mhlo.layout_mode = "default"}], sym_name = "expected", sym_visibility = "private"}> ({
    %0 = "stablehlo.constant"() <{value = dense<"…"> : tensor<20x20xf32>}> : () -> tensor<20x20xf32>
    "func.return"(%0) : (tensor<20x20xf32>) -> ()
  }) : () -> ()
}) {mhlo.num_partitions = 1 : i32, mhlo.num_replicas = 1 : i32} : () -> ()

