"builtin.module"() <{sym_name = "jit_main"}> ({
  "func.func"() <{function_type = () -> tensor<8x9xf16>, res_attrs = [{jax.result_info = "", mhlo.layout_mode = "default"}], sym_name = "main", sym_visibility = "public"}> ({
    %15 = "func.call"() <{callee = @inputs}> : () -> tensor<8x9xf16>
    %16 = "func.call"() <{callee = @expected}> : () -> tensor<8x9xf16>
    %17 = "func.call"(%15) <{callee = @cumlogsumexp}> : (tensor<8x9xf16>) -> tensor<8x9xf16>
    "stablehlo.custom_call"(%17, %16) <{call_target_name = "check.expect_close", has_side_effect = true}> : (tensor<8x9xf16>, tensor<8x9xf16>) -> ()
    "func.return"(%17) : (tensor<8x9xf16>) -> ()
  }) : () -> ()
  "func.func"() <{function_type = () -> tensor<8x9xf16>, res_attrs = [{mhlo.layout_mode = "default"}], sym_name = "inputs", sym_visibility = "private"}> ({
    %14 = "stablehlo.constant"() <{value = dense<[[… > : tensor<8x9xf16>}> : () -> tensor<8x9xf16>
    "func.return"(%14) : (tensor<8x9xf16>) -> ()
  }) : () -> ()
  "func.func"() <{function_type = () -> tensor<8x9xf16>, res_attrs = [{mhlo.layout_mode = "default"}], sym_name = "expected", sym_visibility = "private"}> ({
    %13 = "stablehlo.constant"() <{value = dense<[[… > : tensor<8x9xf16>}> : () -> tensor<8x9xf16>
    "func.return"(%13) : (tensor<8x9xf16>) -> ()
  }) : () -> ()
  "func.func"() <{function_type = (tensor<8x9xf16>) -> tensor<8x9xf16>, sym_name = "cumlogsumexp", sym_visibility = "private"}> ({
  ^bb0(%arg2: tensor<8x9xf16>):
    %10 = "stablehlo.constant"() <{value = dense<0xFC00> : tensor<f16>}> : () -> tensor<f16>
    %11 = "stablehlo.reduce_window"(%arg2, %10) <{padding = dense<[[7, 0], [0, 0]]> : tensor<2x2xi64>, window_dimensions = array<i64: 8, 1>}> ({
    ^bb0(%arg3: tensor<f16>, %arg4: tensor<f16>):
      %12 = "func.call"(%arg3, %arg4) <{callee = @logaddexp}> : (tensor<f16>, tensor<f16>) -> tensor<f16>
      "stablehlo.return"(%12) : (tensor<f16>) -> ()
    }) : (tensor<8x9xf16>, tensor<f16>) -> tensor<8x9xf16>
    "func.return"(%11) : (tensor<8x9xf16>) -> ()
  }) : () -> ()
  "func.func"() <{arg_attrs = [{mhlo.layout_mode = "default"}, {mhlo.layout_mode = "default"}], function_type = (tensor<f16>, tensor<f16>) -> tensor<f16>, res_attrs = [{mhlo.layout_mode = "default"}], sym_name = "logaddexp", sym_visibility = "private"}> ({
  ^bb0(%arg0: tensor<f16>, %arg1: tensor<f16>):
    %0 = "stablehlo.maximum"(%arg0, %arg1) : (tensor<f16>, tensor<f16>) -> tensor<f16>
    %1 = "stablehlo.subtract"(%arg0, %arg1) : (tensor<f16>, tensor<f16>) -> tensor<f16>
    %2 = "stablehlo.compare"(%1, %1) <{compare_type = #stablehlo<comparison_type FLOAT>, comparison_direction = #stablehlo<comparison_direction NE>}> : (tensor<f16>, tensor<f16>) -> tensor<i1>
    %3 = "stablehlo.add"(%arg0, %arg1) : (tensor<f16>, tensor<f16>) -> tensor<f16>
    %4 = "stablehlo.abs"(%1) : (tensor<f16>) -> tensor<f16>
    %5 = "stablehlo.negate"(%4) : (tensor<f16>) -> tensor<f16>
    %6 = "stablehlo.exponential"(%5) : (tensor<f16>) -> tensor<f16>
    %7 = "stablehlo.log_plus_one"(%6) : (tensor<f16>) -> tensor<f16>
    %8 = "stablehlo.add"(%0, %7) : (tensor<f16>, tensor<f16>) -> tensor<f16>
    %9 = "stablehlo.select"(%2, %3, %8) : (tensor<i1>, tensor<f16>, tensor<f16>) -> tensor<f16>
    "func.return"(%9) : (tensor<f16>) -> ()
  }) : () -> ()
}) {mhlo.num_partitions = 1 : i32, mhlo.num_replicas = 1 : i32} : () -> ()

