"builtin.module"() <{sym_name = "jit_main"}> ({
  "func.func"() <{function_type = () -> tensor<20x20xi8>, res_attrs = [{jax.result_info = "", mhlo.layout_mode = "default"}], sym_name = "main", sym_visibility = "public"}> ({
    %3:2 = "func.call"() <{callee = @inputs}> : () -> (tensor<20x20xi8>, tensor<20x20xi8>)
    %4 = "func.call"() <{callee = @expected}> : () -> tensor<20x20xi8>
    %5 = "stablehlo.or"(%3#0, %3#1) : (tensor<20x20xi8>, tensor<20x20xi8>) -> tensor<20x20xi8>
    "stablehlo.custom_call"(%5, %4) <{call_target_name = "check.expect_eq", has_side_effect = true}> : (tensor<20x20xi8>, tensor<20x20xi8>) -> ()
    "func.return"(%5) : (tensor<20x20xi8>) -> ()
  }) : () -> ()
  "func.func"() <{function_type = () -> (tensor<20x20xi8>, tensor<20x20xi8>), res_attrs = [{mhlo.layout_mode = "default"}, {mhlo.layout_mode = "default"}], sym_name = "inputs", sym_visibility = "private"}> ({
    %1 = "stablehlo.constant"() <{value = dense<"…"> : tensor<20x20xi8>}> : () -> tensor<20x20xi8>
    %2 = "stablehlo.constant"() <{value = dense<"…"> : tensor<20x20xi8>}> : () -> tensor<20x20xi8>
    "func.return"(%1, %2) : (tensor<20x20xi8>, tensor<20x20xi8>) -> ()
  }) : () -> ()
  "func.func"() <{function_type = () -> tensor<20x20xi8>, res_attrs = [{mhlo.layout_mode = "default"}], sym_name = "expected", sym_visibility = "private"}> ({
    %0 = "stablehlo.constant"() <{value = dense<"…"> : tensor<20x20xi8>}> : () -> tensor<20x20xi8>
    "func.return"(%0) : (tensor<20x20xi8>) -> ()
  }) : () -> ()
}) {mhlo.num_partitions = 1 : i32, mhlo.num_replicas = 1 : i32} : () -> ()

