"builtin.module"() <{sym_name = "jit_main"}> ({
  "func.func"() <{function_type = () -> tensor<18xf32>, res_attrs = [{jax.result_info = "", mhlo.layout_mode = "default"}], sym_name = "main", sym_visibility = "public"}> ({
    %4:3 = "func.call"() <{callee = @inputs}> : () -> (tensor<i1>, tensor<18xf32>, tensor<18xf32>)
    %5 = "func.call"() <{callee = @expected}> : () -> tensor<18xf32>
    %6 = "stablehlo.select"(%4#0, %4#2, %4#1) : (tensor<i1>, tensor<18xf32>, tensor<18xf32>) -> tensor<18xf32>
    "stablehlo.custom_call"(%6, %5) <{call_target_name = "check.expect_close", has_side_effect = true}> : (tensor<18xf32>, tensor<18xf32>) -> ()
    "func.return"(%6) : (tensor<18xf32>) -> ()
  }) : () -> ()
  "func.func"() <{function_type = () -> (tensor<i1>, tensor<18xf32>, tensor<18xf32>), res_attrs = [{mhlo.layout_mode = "default"}, {mhlo.layout_mode = "default"}, {mhlo.layout_mode = "default"}], sym_name = "inputs", sym_visibility = "private"}> ({
    %1 = "stablehlo.constant"() <{value = dense<[… > : tensor<18xf32>}> : () -> tensor<18xf32>
    %2 = "stablehlo.constant"() <{value = dense<[… > : tensor<18xf32>}> : () -> tensor<18xf32>
    %3 = "stablehlo.constant"() <{value = dense<true> : tensor<i1>}> : () -> tensor<i1>
    "func.return"(%3, %1, %2) : (tensor<i1>, tensor<18xf32>, tensor<18xf32>) -> ()
  }) : () -> ()
  "func.func"() <{function_type = () -> tensor<18xf32>, res_attrs = [{mhlo.layout_mode = "default"}], sym_name = "expected", sym_visibility = "private"}> ({
    %0 = "stablehlo.constant"() <{value = dense<[… > : tensor<18xf32>}> : () -> tensor<18xf32>
    "func.return"(%0) : (tensor<18xf32>) -> ()
  }) : () -> ()
}) {mhlo.num_partitions = 1 : i32, mhlo.num_replicas = 1 : i32} : () -> ()

