"builtin.module"() <{sym_name = "jit_main"}> ({
  "func.func"() <{function_type = () -> tensor<4x6xf32>, res_attrs = [{jax.result_info = "", mhlo.layout_mode = "default"}], sym_name = "main", sym_visibility = "public"}> ({
    %3:2 = "func.call"() <{callee = @inputs}> : () -> (tensor<4x3xui8>, tensor<3x6xf32>)
    %4 = "func.call"() <{callee = @expected}> : () -> tensor<4x6xf32>
    %5 = "stablehlo.convert"(%3#0) : (tensor<4x3xui8>) -> tensor<4x3xf32>
    %6 = "stablehlo.convert"(%3#1) : (tensor<3x6xf32>) -> tensor<3x6xf32>
    %7 = "stablehlo.dot_general"(%5, %6) <{dot_dimension_numbers = #stablehlo.dot<lhs_contracting_dimensions = [1], rhs_contracting_dimensions = [0]>}> : (tensor<4x3xf32>, tensor<3x6xf32>) -> tensor<4x6xf32>
    "stablehlo.custom_call"(%7, %4) <{call_target_name = "check.expect_close", has_side_effect = true}> : (tensor<4x6xf32>, tensor<4x6xf32>) -> ()
    "func.return"(%7) : (tensor<4x6xf32>) -> ()
  }) : () -> ()
  "func.func"() <{function_type = () -> (tensor<4x3xui8>, tensor<3x6xf32>), res_attrs = [{mhlo.layout_mode = "default"}, {mhlo.layout_mode = "default"}], sym_name = "inputs", sym_visibility = "private"}> ({
    %1 = "stablehlo.constant"() <{value = dense<[[0, 1, 0], [3, 0, 1], [1, 4, 4], [2, 2, 0]]> : tensor<4x3xui8>}> : () -> tensor<4x3xui8>
    %2 = "stablehlo.constant"() <{value = dense<[[… > : tensor<3x6xf32>}> : () -> tensor<3x6xf32>
    "func.return"(%1, %2) : (tensor<4x3xui8>, tensor<3x6xf32>) -> ()
  }) : () -> ()
  "func.func"() <{function_type = () -> tensor<4x6xf32>, res_attrs = [{mhlo.layout_mode = "default"}], sym_name = "expected", sym_visibility = "private"}> ({
    %0 = "stablehlo.constant"() <{value = dense<[[… > : tensor<4x6xf32>}> : () -> tensor<4x6xf32>
    "func.return"(%0) : (tensor<4x6xf32>) -> ()
  }) : () -> ()
}) {mhlo.num_partitions = 1 : i32, mhlo.num_replicas = 1 : i32} : () -> ()

