"builtin.module"() <{sym_name = "jit_main"}> ({
  "func.func"() <{function_type = () -> tensor<1x33x2xf32>, res_attrs = [{jax.result_info = "", mhlo.layout_mode = "default"}], sym_name = "main", sym_visibility = "public"}> ({
    %3:2 = "func.call"() <{callee = @inputs}> : () -> (tensor<1x16x2xf32>, tensor<3x2x2xf32>)
    %4 = "func.call"() <{callee = @expected}> : () -> tensor<1x33x2xf32>
    %5 = "stablehlo.convolution"(%3#0, %3#1) <{batch_group_count = 1 : i64, dimension_numbers = #stablehlo.conv<[b, 0, f]x[0, i, o]->[b, 0, f]>, feature_group_count = 1 : i64, lhs_dilation = array<i64: 2>, padding = dense<2> : tensor<1x2xi64>}> : (tensor<1x16x2xf32>, tensor<3x2x2xf32>) -> tensor<1x33x2xf32>
    "stablehlo.custom_call"(%5, %4) <{call_target_name = "check.expect_almost_eq", has_side_effect = true}> : (tensor<1x33x2xf32>, tensor<1x33x2xf32>) -> ()
    "func.return"(%5) : (tensor<1x33x2xf32>) -> ()
  }) : () -> ()
  "func.func"() <{function_type = () -> (tensor<1x16x2xf32>, tensor<3x2x2xf32>), res_attrs = [{mhlo.layout_mode = "default"}, {mhlo.layout_mode = "default"}], sym_name = "inputs", sym_visibility = "private"}> ({
    %1 = "stablehlo.constant"() <{value = dense<[[[… > : tensor<1x16x2xf32>}> : () -> tensor<1x16x2xf32>
    %2 = "stablehlo.constant"() <{value = dense<[[[-1.16260839, -1.83661807], [-0.214550629, 0.93904066]], [[-2.58689475, 7.01376152], [2.17989922, 3.44552255]], [[-0.495644063, 0.346568316], [-1.58046222, 1.97559404]]]> : tensor<3x2x2xf32>}> : () -> tensor<3x2x2xf32>
    "func.return"(%1, %2) : (tensor<1x16x2xf32>, tensor<3x2x2xf32>) -> ()
  }) : () -> ()
  "func.func"() <{function_type = () -> tensor<1x33x2xf32>, res_attrs = [{mhlo.layout_mode = "default"}], sym_name = "expected", sym_visibility = "private"}> ({
    %0 = "stablehlo.constant"() <{value = dense<[[[… > : tensor<1x33x2xf32>}> : () -> tensor<1x33x2xf32>
    "func.return"(%0) : (tensor<1x33x2xf32>) -> ()
  }) : () -> ()
}) {mhlo.num_partitions = 1 : i32, mhlo.num_replicas = 1 : i32} : () -> ()

