"builtin.module"() <{sym_name = "jit_main"}> ({
  "func.func"() <{function_type = () -> tensor<2x4x3xf32>, res_attrs = [{jax.result_info = "", mhlo.layout_mode = "default"}], sym_name = "main", sym_visibility = "public"}> ({
    %3:2 = "func.call"() <{callee = @inputs}> : () -> (tensor<2x1x3xf32>, tensor<2x4x3xf32>)
    %4 = "func.call"() <{callee = @expected}> : () -> tensor<2x4x3xf32>
    %5 = "stablehlo.broadcast_in_dim"(%3#0) <{broadcast_dimensions = array<i64: 0, 1, 2>}> : (tensor<2x1x3xf32>) -> tensor<2x4x3xf32>
    %6 = "stablehlo.remainder"(%5, %3#1) : (tensor<2x4x3xf32>, tensor<2x4x3xf32>) -> tensor<2x4x3xf32>
    "stablehlo.custom_call"(%6, %4) <{call_target_name = "check.expect_close", has_side_effect = true}> : (tensor<2x4x3xf32>, tensor<2x4x3xf32>) -> ()
    "func.return"(%6) : (tensor<2x4x3xf32>) -> ()
  }) : () -> ()
  "func.func"() <{function_type = () -> (tensor<2x1x3xf32>, tensor<2x4x3xf32>), res_attrs = [{mhlo.layout_mode = "default"}, {mhlo.layout_mode = "default"}], sym_name = "inputs", sym_visibility = "private"}> ({
    %1 = "stablehlo.constant"() <{value = dense<[[[-0.616980791, 0.706572294, -4.73949623]], [[1.67496932, -3.13438964, 1.29330683]]]> : tensor<2x1x3xf32>}> : () -> tensor<2x1x3xf32>
    %2 = "stablehlo.constant"() <{value = dense<[[[… > : tensor<2x4x3xf32>}> : () -> tensor<2x4x3xf32>
    "func.return"(%1, %2) : (tensor<2x1x3xf32>, tensor<2x4x3xf32>) -> ()
  }) : () -> ()
  "func.func"() <{function_type = () -> tensor<2x4x3xf32>, res_attrs = [{mhlo.layout_mode = "default"}], sym_name = "expected", sym_visibility = "private"}> ({
    %0 = "stablehlo.constant"() <{value = dense<[[[… > : tensor<2x4x3xf32>}> : () -> tensor<2x4x3xf32>
    "func.return"(%0) : (tensor<2x4x3xf32>) -> ()
  }) : () -> ()
}) {mhlo.num_partitions = 1 : i32, mhlo.num_replicas = 1 : i32} : () -> ()

