"builtin.module"() <{sym_name = "jit_main"}> ({
  "func.func"() <{function_type = () -> tensor<4x2x3x5xf32>, res_attrs = [{jax.result_info = "", mhlo.layout_mode = "default"}], sym_name = "main", sym_visibility = "public"}> ({
    %3 = "stablehlo.constant"() <{value = dense<[0, 4]> : tensor<2xi64>}> : () -> tensor<2xi64>
    %4:2 = "func.call"() <{callee = @inputs}> : () -> (tensor<4x2x3x5xf32>, tensor<4x3xf32>)
    %5 = "func.call"() <{callee = @expected}> : () -> tensor<4x2x3x5xf32>
    %6 = "stablehlo.scatter"(%4#0, %3, %4#1) <{scatter_dimension_numbers = #stablehlo.scatter<update_window_dims = [0, 1], inserted_window_dims = [1, 3], scatter_dims_to_operand_dims = [1, 3]>, unique_indices = true}> ({
    ^bb0(%arg0: tensor<f32>, %arg1: tensor<f32>):
      %7 = "stablehlo.maximum"(%arg0, %arg1) : (tensor<f32>, tensor<f32>) -> tensor<f32>
      "stablehlo.return"(%7) : (tensor<f32>) -> ()
    }) : (tensor<4x2x3x5xf32>, tensor<2xi64>, tensor<4x3xf32>) -> tensor<4x2x3x5xf32>
    "stablehlo.custom_call"(%6, %5) <{call_target_name = "check.expect_close", has_side_effect = true}> : (tensor<4x2x3x5xf32>, tensor<4x2x3x5xf32>) -> ()
    "func.return"(%6) : (tensor<4x2x3x5xf32>) -> ()
  }) : () -> ()
  "func.func"() <{function_type = () -> (tensor<4x2x3x5xf32>, tensor<4x3xf32>), res_attrs = [{mhlo.layout_mode = "default"}, {mhlo.layout_mode = "default"}], sym_name = "inputs", sym_visibility = "private"}> ({
    %1 = "stablehlo.constant"() <{value = dense<"…"> : tensor<4x2x3x5xf32>}> : () -> tensor<4x2x3x5xf32>
    %2 = "stablehlo.constant"() <{value = dense<[[-8.52962398, 0.358306259, 4.15123272], [1.51394248, 0.399344951, -4.01372528], [-6.03845072, 4.46726418, -0.0715741366], [0.290659636, 1.07122183, 1.37316954]]> : tensor<4x3xf32>}> : () -> tensor<4x3xf32>
    "func.return"(%1, %2) : (tensor<4x2x3x5xf32>, tensor<4x3xf32>) -> ()
  }) : () -> ()
  "func.func"() <{function_type = () -> tensor<4x2x3x5xf32>, res_attrs = [{mhlo.layout_mode = "default"}], sym_name = "expected", sym_visibility = "private"}> ({
    %0 = "stablehlo.constant"() <{value = dense<"…"> : tensor<4x2x3x5xf32>}> : () -> tensor<4x2x3x5xf32>
    "func.return"(%0) : (tensor<4x2x3x5xf32>) -> ()
  }) : () -> ()
}) {mhlo.num_partitions = 1 : i32, mhlo.num_replicas = 1 : i32} : () -> ()

