"builtin.module"() <{sym_name = "jit_main"}> ({
  "func.func"() <{function_type = () -> (tensor<100xi32>, tensor<100xi32>, tensor<100xf32>), res_attrs = [{jax.result_info = "[0]", mhlo.layout_mode = "default"}, {jax.result_info = "[1]", mhlo.layout_mode = "default"}, {jax.result_info = "[2]", mhlo.layout_mode = "default"}], sym_name = "main", sym_visibility = "public"}> ({
    %6:3 = "func.call"() <{callee = @inputs}> : () -> (tensor<100xi32>, tensor<100xi32>, tensor<100xf32>)
    %7:3 = "func.call"() <{callee = @expected}> : () -> (tensor<100xi32>, tensor<100xi32>, tensor<100xf32>)
    %8:3 = "stablehlo.sort"(%6#0, %6#1, %6#2) <{dimension = 0 : i64, is_stable = true}> ({
    ^bb0(%arg0: tensor<i32>, %arg1: tensor<i32>, %arg2: tensor<i32>, %arg3: tensor<i32>, %arg4: tensor<f32>, %arg5: tensor<f32>):
      %9 = "stablehlo.constant"() <{value = dense<0.000000e+00> : tensor<f32>}> : () -> tensor<f32>
      %10 = "stablehlo.compare"(%arg4, %9) <{compare_type = #stablehlo<comparison_type FLOAT>, comparison_direction = #stablehlo<comparison_direction EQ>}> : (tensor<f32>, tensor<f32>) -> tensor<i1>
      %11 = "stablehlo.constant"() <{value = dense<0.000000e+00> : tensor<f32>}> : () -> tensor<f32>
      %12 = "stablehlo.select"(%10, %11, %arg4) : (tensor<i1>, tensor<f32>, tensor<f32>) -> tensor<f32>
      %13 = "stablehlo.compare"(%arg4, %arg4) <{compare_type = #stablehlo<comparison_type FLOAT>, comparison_direction = #stablehlo<comparison_direction NE>}> : (tensor<f32>, tensor<f32>) -> tensor<i1>
      %14 = "stablehlo.constant"() <{value = dense<0x7FC00000> : tensor<f32>}> : () -> tensor<f32>
      %15 = "stablehlo.select"(%13, %14, %12) : (tensor<i1>, tensor<f32>, tensor<f32>) -> tensor<f32>
      %16 = "stablehlo.constant"() <{value = dense<0.000000e+00> : tensor<f32>}> : () -> tensor<f32>
      %17 = "stablehlo.compare"(%arg5, %16) <{compare_type = #stablehlo<comparison_type FLOAT>, comparison_direction = #stablehlo<comparison_direction EQ>}> : (tensor<f32>, tensor<f32>) -> tensor<i1>
      %18 = "stablehlo.constant"() <{value = dense<0.000000e+00> : tensor<f32>}> : () -> tensor<f32>
      %19 = "stablehlo.select"(%17, %18, %arg5) : (tensor<i1>, tensor<f32>, tensor<f32>) -> tensor<f32>
      %20 = "stablehlo.compare"(%arg5, %arg5) <{compare_type = #stablehlo<comparison_type FLOAT>, comparison_direction = #stablehlo<comparison_direction NE>}> : (tensor<f32>, tensor<f32>) -> tensor<i1>
      %21 = "stablehlo.constant"() <{value = dense<0x7FC00000> : tensor<f32>}> : () -> tensor<f32>
      %22 = "stablehlo.select"(%20, %21, %19) : (tensor<i1>, tensor<f32>, tensor<f32>) -> tensor<f32>
      %23 = "stablehlo.compare"(%15, %22) <{compare_type = #stablehlo<comparison_type TOTALORDER>, comparison_direction = #stablehlo<comparison_direction LT>}> : (tensor<f32>, tensor<f32>) -> tensor<i1>
      %24 = "stablehlo.compare"(%arg2, %arg3) <{compare_type = #stablehlo<comparison_type SIGNED>, comparison_direction = #stablehlo<comparison_direction LT>}> : (tensor<i32>, tensor<i32>) -> tensor<i1>
      %25 = "stablehlo.compare"(%arg2, %arg3) <{compare_type = #stablehlo<comparison_type SIGNED>, comparison_direction = #stablehlo<comparison_direction EQ>}> : (tensor<i32>, tensor<i32>) -> tensor<i1>
      %26 = "stablehlo.and"(%25, %23) : (tensor<i1>, tensor<i1>) -> tensor<i1>
      %27 = "stablehlo.or"(%24, %26) : (tensor<i1>, tensor<i1>) -> tensor<i1>
      %28 = "stablehlo.compare"(%arg0, %arg1) <{compare_type = #stablehlo<comparison_type SIGNED>, comparison_direction = #stablehlo<comparison_direction LT>}> : (tensor<i32>, tensor<i32>) -> tensor<i1>
      %29 = "stablehlo.compare"(%arg0, %arg1) <{compare_type = #stablehlo<comparison_type SIGNED>, comparison_direction = #stablehlo<comparison_direction EQ>}> : (tensor<i32>, tensor<i32>) -> tensor<i1>
      %30 = "stablehlo.and"(%29, %27) : (tensor<i1>, tensor<i1>) -> tensor<i1>
      %31 = "stablehlo.or"(%28, %30) : (tensor<i1>, tensor<i1>) -> tensor<i1>
      "stablehlo.return"(%31) : (tensor<i1>) -> ()
    }) : (tensor<100xi32>, tensor<100xi32>, tensor<100xf32>) -> (tensor<100xi32>, tensor<100xi32>, tensor<100xf32>)
    "stablehlo.custom_call"(%8#0, %7#0) <{call_target_name = "check.expect_eq", has_side_effect = true}> : (tensor<100xi32>, tensor<100xi32>) -> ()
    "stablehlo.custom_call"(%8#1, %7#1) <{call_target_name = "check.expect_eq", has_side_effect = true}> : (tensor<100xi32>, tensor<100xi32>) -> ()
    "stablehlo.custom_call"(%8#2, %7#2) <{call_target_name = "check.expect_close", has_side_effect = true}> : (tensor<100xf32>, tensor<100xf32>) -> ()
    "func.return"(%8#0, %8#1, %8#2) : (tensor<100xi32>, tensor<100xi32>, tensor<100xf32>) -> ()
  }) : () -> ()
  "func.func"() <{function_type = () -> (tensor<100xi32>, tensor<100xi32>, tensor<100xf32>), res_attrs = [{mhlo.layout_mode = "default"}, {mhlo.layout_mode = "default"}, {mhlo.layout_mode = "default"}], sym_name = "inputs", sym_visibility = "private"}> ({
    %3 = "stablehlo.constant"() <{value = dense<[1, 0, 0, 0, 1, 1, 1, 0, 1, 1, 0, 1, 0, 0, 1, 1, 1, 0, 1, 0, 0, 0, 1, 0, 1, 1, 0, 0, 1, 1, 0, 1, 0, 1, 1, 1, 1, 1, 1, 1, 1, 1, 0, 1, 0, 0, 1, 0, 0, 1, 0, 1, 1, 1, 1, 0, 1, 0, 0, 0, 0, 1, 0, 1, 1, 1, 1, 0, 0, 1, 1, 0, 0, 1, 0, 0, 1, 1, 1, 0, 0, 1, 1, 0, 1, 0, 1, 0, 0, 1, 0, 1, 0, 0, 0, 0, 1, 1, 1, 1]> : tensor<100xi32>}> : () -> tensor<100xi32>
    %4 = "stablehlo.constant"() <{value = dense<[1, 5, 2, 3, 4, 2, -5, 0, 2, 2, 0, -1, -1, 0, 0, -5, 4, -3, 3, 0, 0, 1, 0, 5, 3, -3, 0, 1, 0, 0, 0, -2, 0, 4, -2, -1, -3, 0, -1, 3, 1, -4, -4, -2, 3, 5, 1, 7, 2, 2, 1, 0, -3, 1, -1, -1, -3, -3, -1, -2, 2, -5, 0, 0, -1, -1, -1, -2, 1, -2, 2, 3, 0, -2, 4, -3, 0, 0, -4, 0, 1, 0, -2, 3, 0, -2, -1, -5, 1, 6, -2, 1, -3, 1, 0, 0, 0, 3, -1, 0]> : tensor<100xi32>}> : () -> tensor<100xi32>
    %5 = "stablehlo.constant"() <{value = dense<[… > : tensor<100xf32>}> : () -> tensor<100xf32>
    "func.return"(%3, %4, %5) : (tensor<100xi32>, tensor<100xi32>, tensor<100xf32>) -> ()
  }) : () -> ()
  "func.func"() <{function_type = () -> (tensor<100xi32>, tensor<100xi32>, tensor<100xf32>), res_attrs = [{mhlo.layout_mode = "default"}, {mhlo.layout_mode = "default"}, {mhlo.layout_mode = "default"}], sym_name = "expected", sym_visibility = "private"}> ({
    %0 = "stablehlo.constant"() <{value = dense<[0, 0, 0, 0, 0, 0, 0, 0, 0, 0, 0, 0, 0, 0, 0, 0, 0, 0, 0, 0, 0, 0, 0, 0, 0, 0, 0, 0, 0, 0, 0, 0, 0, 0, 0, 0, 0, 0, 0, 0, 0, 0, 0, 0, 0, 1, 1, 1, 1, 1, 1, 1, 1, 1, 1, 1, 1, 1, 1, 1, 1, 1, 1, 1, 1, 1, 1, 1, 1, 1, 1, 1, 1, 1, 1, 1, 1, 1, 1, 1, 1, 1, 1, 1, 1, 1, 1, 1, 1, 1, 1, 1, 1, 1, 1, 1, 1, 1, 1, 1]> : tensor<100xi32>}> : () -> tensor<100xi32>
    %1 = "stablehlo.constant"() <{value = dense<[-5, -4, -3, -3, -3, -3, -2, -2, -2, -2, -1, -1, -1, 0, 0, 0, 0, 0, 0, 0, 0, 0, 0, 0, 0, 0, 1, 1, 1, 1, 1, 1, 1, 2, 2, 2, 3, 3, 3, 3, 4, 5, 5, 5, 7, -5, -5, -5, -4, -4, -3, -3, -3, -3, -2, -2, -2, -2, -2, -2, -1, -1, -1, -1, -1, -1, -1, -1, -1, 0, 0, 0, 0, 0, 0, 0, 0, 0, 0, 0, 0, 0, 1, 1, 1, 1, 1, 2, 2, 2, 2, 2, 3, 3, 3, 3, 4, 4, 4, 6]> : tensor<100xi32>}> : () -> tensor<100xi32>
    %2 = "stablehlo.constant"() <{value = dense<[… > : tensor<100xf32>}> : () -> tensor<100xf32>
    "func.return"(%0, %1, %2) : (tensor<100xi32>, tensor<100xi32>, tensor<100xf32>) -> ()
  }) : () -> ()
}) {mhlo.num_partitions = 1 : i32, mhlo.num_replicas = 1 : i32} : () -> ()

