"builtin.module"() <{sym_name = "jit_main"}> ({
  "func.func"() <{function_type = () -> tensor<5x6x7xi8>, res_attrs = [{jax.result_info = "", mhlo.layout_mode = "default"}], sym_name = "main", sym_visibility = "public"}> ({
    %3 = "stablehlo.constant"() <{value = dense<[[[0, 1], [2, 3]], [[4, 0], [1, 2]]]> : tensor<2x2x2xi64>}> : () -> tensor<2x2x2xi64>
    %4:2 = "func.call"() <{callee = @inputs}> : () -> (tensor<5x6x7xi8>, tensor<5x2x2xi8>)
    %5 = "func.call"() <{callee = @expected}> : () -> tensor<5x6x7xi8>
    %6 = "stablehlo.scatter"(%4#0, %3, %4#1) <{scatter_dimension_numbers = #stablehlo.scatter<update_window_dims = [0], inserted_window_dims = [1, 2], scatter_dims_to_operand_dims = [1, 2], index_vector_dim = 2>, unique_indices = true}> ({
    ^bb0(%arg0: tensor<i8>, %arg1: tensor<i8>):
      "stablehlo.return"(%arg1) : (tensor<i8>) -> ()
    }) : (tensor<5x6x7xi8>, tensor<2x2x2xi64>, tensor<5x2x2xi8>) -> tensor<5x6x7xi8>
    "stablehlo.custom_call"(%6, %5) <{call_target_name = "check.expect_eq", has_side_effect = true}> : (tensor<5x6x7xi8>, tensor<5x6x7xi8>) -> ()
    "func.return"(%6) : (tensor<5x6x7xi8>) -> ()
  }) : () -> ()
  "func.func"() <{function_type = () -> (tensor<5x6x7xi8>, tensor<5x2x2xi8>), res_attrs = [{mhlo.layout_mode = "default"}, {mhlo.layout_mode = "default"}], sym_name = "inputs", sym_visibility = "private"}> ({
    %1 = "stablehlo.constant"() <{value = dense<"…"> : tensor<5x6x7xi8>}> : () -> tensor<5x6x7xi8>
    %2 = "stablehlo.constant"() <{value = dense<[[[0, 0], [0, 2]], [[2, 7], [-4, 2]], [[0, 0], [4, -5]], [[0, 5], [0, -1]], [[0, -5], [-1, -1]]]> : tensor<5x2x2xi8>}> : () -> tensor<5x2x2xi8>
    "func.return"(%1, %2) : (tensor<5x6x7xi8>, tensor<5x2x2xi8>) -> ()
  }) : () -> ()
  "func.func"() <{function_type = () -> tensor<5x6x7xi8>, res_attrs = [{mhlo.layout_mode = "default"}], sym_name = "expected", sym_visibility = "private"}> ({
    %0 = "stablehlo.constant"() <{value = dense<"…"> : tensor<5x6x7xi8>}> : () -> tensor<5x6x7xi8>
    "func.return"(%0) : (tensor<5x6x7xi8>) -> ()
  }) : () -> ()
}) {mhlo.num_partitions = 1 : i32, mhlo.num_replicas = 1 : i32} : () -> ()

