"builtin.module"() <{sym_name = "jit_main"}> ({
  "func.func"() <{function_type = () -> tensor<4x6xcomplex<f64>>, res_attrs = [{jax.result_info = "", mhlo.layout_mode = "default"}], sym_name = "main", sym_visibility = "public"}> ({
    %3:2 = "func.call"() <{callee = @inputs}> : () -> (tensor<4x3xbf16>, tensor<3x6xcomplex<f64>>)
    %4 = "func.call"() <{callee = @expected}> : () -> tensor<4x6xcomplex<f64>>
    %5 = "stablehlo.convert"(%3#0) : (tensor<4x3xbf16>) -> tensor<4x3xcomplex<f64>>
    %6 = "stablehlo.convert"(%3#1) : (tensor<3x6xcomplex<f64>>) -> tensor<3x6xcomplex<f64>>
    %7 = "stablehlo.dot_general"(%5, %6) <{dot_dimension_numbers = #stablehlo.dot<lhs_contracting_dimensions = [1], rhs_contracting_dimensions = [0]>}> : (tensor<4x3xcomplex<f64>>, tensor<3x6xcomplex<f64>>) -> tensor<4x6xcomplex<f64>>
    "stablehlo.custom_call"(%7, %4) <{call_target_name = "check.expect_close", has_side_effect = true}> : (tensor<4x6xcomplex<f64>>, tensor<4x6xcomplex<f64>>) -> ()
    "func.return"(%7) : (tensor<4x6xcomplex<f64>>) -> ()
  }) : () -> ()
  "func.func"() <{function_type = () -> (tensor<4x3xbf16>, tensor<3x6xcomplex<f64>>), res_attrs = [{mhlo.layout_mode = "default"}, {mhlo.layout_mode = "default"}], sym_name = "inputs", sym_visibility = "private"}> ({
    %1 = "stablehlo.constant"() <{value = dense<[[4.031250e+00, -2.609380e+00, 2.906250e+00], [2.421880e+00, -1.203130e+00, -1.539060e+00], [-3.546880e+00, 1.898440e+00, 6.484380e-01], [-2.671880e+00, -7.625000e+00, -9.882810e-01]]> : tensor<4x3xbf16>}> : () -> tensor<4x3xbf16>
    %2 = "stablehlo.constant"() <{value = dense<[[(-1.0049852924828599,1.2512058920483362), (2.1247392659847062,-1.1927499484948916), (-1.0594872864618186,6.6559361144342875), (2.3470959723250755,0.19887131877953362), (-2.8230120637989873,-3.4964817366154382), (-2.8057190014674012,-3.1759793946294286)], [(0.47055184671410577,-0.42583147998936532), (2.6137252217619635,-1.0168777930585409), (-0.901458428731293,5.5022819063003485), (-5.2197600864451319,-2.7953794302909678), (-1.5204954841599654,-2.3389642408757583), (-3.6335158536585599,-3.0695722286084073)], [(3.6994756723676527,-0.054563935344215109), (-1.4272228997618996,-3.0190076170676146), (0.90386214829819367,0.32596761927906537), (4.5535424832022979,-1.3152837667230501), (1.5157205419643804,2.5752496464620265), (-0.29195266411783666,-0.15457334640259199)]]> : tensor<3x6xcomplex<f64>>}> : () -> tensor<3x6xcomplex<f64>>
    "func.return"(%1, %2) : (tensor<4x3xbf16>, tensor<3x6xcomplex<f64>>) -> ()
  }) : () -> ()
  "func.func"() <{function_type = () -> tensor<4x6xcomplex<f64>>, res_attrs = [{mhlo.layout_mode = "default"}], sym_name = "expected", sym_visibility = "private"}> ({
    %0 = "stablehlo.constant"() <{value = dense<[[(5.4724079874773413,5.9965013333229802), (-2.402700636967297,-10.928848625710657), (0.70803433241313662,13.421569005590534), (36.3157749558099,4.2733497577066242), (-3.007661653125778,-0.50763789966553929), (-2.6778367241176193,-5.2427306885573559)], [(-8.6938057228131758,3.6265700759074755), (4.197799996539147,2.9811812239056161), (-2.8724789374475685,8.9982278195812455), (4.9562104339255537,5.8691362744601978), (-7.3404248592502679,-9.6174455125698301), (-1.9741935481270492,-3.7608479678759177)], [(6.8567492370723544,-5.2816666504760175), (-3.4996554574151344,0.34241828661596374), (2.6326045951618089,-12.950665471265777), (-15.28155661199969,-6.8651041634736449), (8.1091553070071267,9.6310946761480309), (2.8642187742608574,5.3371797332695499)], [(-4.5588851946745095,-0.042176193670837525), (-24.196194910832546,13.924200562261266), (8.8111680988434564,-60.060876527534909), (29.029342950860798,22.083279136186327), (17.638555232819417,24.631693537029481), (35.490620185027439,32.044070128164051)]]> : tensor<4x6xcomplex<f64>>}> : () -> tensor<4x6xcomplex<f64>>
    "func.return"(%0) : (tensor<4x6xcomplex<f64>>) -> ()
  }) : () -> ()
}) {mhlo.num_partitions = 1 : i32, mhlo.num_replicas = 1 : i32} : () -> ()

