"builtin.module"() <{sym_name = "jit_main"}> ({
  "func.func"() <{function_type = () -> tensor<2x4x6xf16>, res_attrs = [{jax.result_info = "", mhlo.layout_mode = "default"}], sym_name = "main", sym_visibility = "public"}> ({
    %3:2 = "func.call"() <{callee = @inputs}> : () -> (tensor<2x1x6xf16>, tensor<2x4x6xf16>)
    %4 = "func.call"() <{callee = @expected}> : () -> tensor<2x4x6xf16>
    %5 = "stablehlo.constant"() <{value = dense<0xFC00> : tensor<f16>}> : () -> tensor<f16>
    %6 = "stablehlo.pad"(%3#1, %5) <{edge_padding_high = array<i64: 0, 0, 0>, edge_padding_low = array<i64: 0, 0, 0>, interior_padding = array<i64: 0, 0, 0>}> : (tensor<2x4x6xf16>, tensor<f16>) -> tensor<2x4x6xf16>
    %7 = "stablehlo.constant"() <{value = dense<0.000000e+00> : tensor<f16>}> : () -> tensor<f16>
    %8 = "stablehlo.select_and_scatter"(%6, %3#0, %7) <{window_dimensions = array<i64: 1, 3, 1>, window_strides = array<i64: 1, 2, 1>}> ({
    ^bb0(%arg2: tensor<f16>, %arg3: tensor<f16>):
      %11 = "stablehlo.compare"(%arg2, %arg3) <{compare_type = #stablehlo<comparison_type FLOAT>, comparison_direction = #stablehlo<comparison_direction GE>}> : (tensor<f16>, tensor<f16>) -> tensor<i1>
      "stablehlo.return"(%11) : (tensor<i1>) -> ()
    }, {
    ^bb0(%arg0: tensor<f16>, %arg1: tensor<f16>):
      %10 = "stablehlo.add"(%arg0, %arg1) : (tensor<f16>, tensor<f16>) -> tensor<f16>
      "stablehlo.return"(%10) : (tensor<f16>) -> ()
    }) : (tensor<2x4x6xf16>, tensor<2x1x6xf16>, tensor<f16>) -> tensor<2x4x6xf16>
    %9 = "stablehlo.slice"(%8) <{limit_indices = array<i64: 2, 4, 6>, start_indices = array<i64: 0, 0, 0>, strides = array<i64: 1, 1, 1>}> : (tensor<2x4x6xf16>) -> tensor<2x4x6xf16>
    "stablehlo.custom_call"(%9, %4) <{call_target_name = "check.expect_close", has_side_effect = true}> : (tensor<2x4x6xf16>, tensor<2x4x6xf16>) -> ()
    "func.return"(%9) : (tensor<2x4x6xf16>) -> ()
  }) : () -> ()
  "func.func"() <{function_type = () -> (tensor<2x1x6xf16>, tensor<2x4x6xf16>), res_attrs = [{mhlo.layout_mode = "default"}, {mhlo.layout_mode = "default"}], sym_name = "inputs", sym_visibility = "private"}> ({
    %1 = "stablehlo.constant"() <{value = dense<[[[4.429690e+00, -1.569340e+00, -1.449220e+00, 3.458980e+00, 1.494140e+00, 6.191400e-01]], [[-4.476560e+00, 5.312500e-01, -2.318120e-01, -2.810550e+00, -5.971680e-01, -3.281250e+00]]]> : tensor<2x1x6xf16>}> : () -> tensor<2x1x6xf16>
    %2 = "stablehlo.constant"() <{value = dense<[[[… > : tensor<2x4x6xf16>}> : () -> tensor<2x4x6xf16>
    "func.return"(%1, %2) : (tensor<2x1x6xf16>, tensor<2x4x6xf16>) -> ()
  }) : () -> ()
  "func.func"() <{function_type = () -> tensor<2x4x6xf16>, res_attrs = [{mhlo.layout_mode = "default"}], sym_name = "expected", sym_visibility = "private"}> ({
    %0 = "stablehlo.constant"() <{value = dense<[[[… > : tensor<2x4x6xf16>}> : () -> tensor<2x4x6xf16>
    "func.return"(%0) : (tensor<2x4x6xf16>) -> ()
  }) : () -> ()
}) {mhlo.num_partitions = 1 : i32, mhlo.num_replicas = 1 : i32} : () -> ()

