"builtin.module"() <{sym_name = "jit_main"}> ({
  "func.func"() <{function_type = () -> tensor<5x6x7xf16>, res_attrs = [{jax.result_info = "", mhlo.layout_mode = "default"}], sym_name = "main", sym_visibility = "public"}> ({
    %3 = "stablehlo.constant"() <{value = dense<[[0, 1], [2, 3]]> : tensor<2x2xi64>}> : () -> tensor<2x2xi64>
    %4:2 = "func.call"() <{callee = @inputs}> : () -> (tensor<5x6x7xf16>, tensor<2x7xf16>)
    %5 = "func.call"() <{callee = @expected}> : () -> tensor<5x6x7xf16>
    %6 = "stablehlo.scatter"(%4#0, %3, %4#1) <{scatter_dimension_numbers = #stablehlo.scatter<update_window_dims = [1], inserted_window_dims = [0, 1], scatter_dims_to_operand_dims = [0, 1], index_vector_dim = 1>, unique_indices = true}> ({
    ^bb0(%arg0: tensor<f16>, %arg1: tensor<f16>):
      %7 = "stablehlo.multiply"(%arg0, %arg1) : (tensor<f16>, tensor<f16>) -> tensor<f16>
      "stablehlo.return"(%7) : (tensor<f16>) -> ()
    }) : (tensor<5x6x7xf16>, tensor<2x2xi64>, tensor<2x7xf16>) -> tensor<5x6x7xf16>
    "stablehlo.custom_call"(%6, %5) <{call_target_name = "check.expect_close", has_side_effect = true}> : (tensor<5x6x7xf16>, tensor<5x6x7xf16>) -> ()
    "func.return"(%6) : (tensor<5x6x7xf16>) -> ()
  }) : () -> ()
  "func.func"() <{function_type = () -> (tensor<5x6x7xf16>, tensor<2x7xf16>), res_attrs = [{mhlo.layout_mode = "default"}, {mhlo.layout_mode = "default"}], sym_name = "inputs", sym_visibility = "private"}> ({
    %1 = "stablehlo.constant"() <{value = dense<"…"> : tensor<5x6x7xf16>}> : () -> tensor<5x6x7xf16>
    %2 = "stablehlo.constant"() <{value = dense<[[3.884770e+00, 3.884770e+00, 1.958010e+00, 1.750980e+00, -8.234380e+00, -2.351560e+00, 4.421390e-01], [-8.447270e-01, 6.459960e-01, -4.589840e+00, -1.073240e+00, 3.373050e+00, 1.296880e+00, -4.042970e+00]]> : tensor<2x7xf16>}> : () -> tensor<2x7xf16>
    "func.return"(%1, %2) : (tensor<5x6x7xf16>, tensor<2x7xf16>) -> ()
  }) : () -> ()
  "func.func"() <{function_type = () -> tensor<5x6x7xf16>, res_attrs = [{mhlo.layout_mode = "default"}], sym_name = "expected", sym_visibility = "private"}> ({
    %0 = "stablehlo.constant"() <{value = dense<"…"> : tensor<5x6x7xf16>}> : () -> tensor<5x6x7xf16>
    "func.return"(%0) : (tensor<5x6x7xf16>) -> ()
  }) : () -> ()
}) {mhlo.num_partitions = 1 : i32, mhlo.num_replicas = 1 : i32} : () -> ()

