"builtin.module"() <{sym_name = "jit_main"}> ({
  "func.func"() <{function_type = () -> tensor<4x6xf64>, res_attrs = [{jax.result_info = "", mhlo.layout_mode = "default"}], sym_name = "main", sym_visibility = "public"}> ({
    %3:2 = "func.call"() <{callee = @inputs}> : () -> (tensor<4x3xf16>, tensor<3x6xf64>)
    %4 = "func.call"() <{callee = @expected}> : () -> tensor<4x6xf64>
    %5 = "stablehlo.convert"(%3#0) : (tensor<4x3xf16>) -> tensor<4x3xf64>
    %6 = "stablehlo.convert"(%3#1) : (tensor<3x6xf64>) -> tensor<3x6xf64>
    %7 = "stablehlo.dot_general"(%5, %6) <{dot_dimension_numbers = #stablehlo.dot<lhs_contracting_dimensions = [1], rhs_contracting_dimensions = [0]>}> : (tensor<4x3xf64>, tensor<3x6xf64>) -> tensor<4x6xf64>
    "stablehlo.custom_call"(%7, %4) <{call_target_name = "check.expect_close", has_side_effect = true}> : (tensor<4x6xf64>, tensor<4x6xf64>) -> ()
    "func.return"(%7) : (tensor<4x6xf64>) -> ()
  }) : () -> ()
  "func.func"() <{function_type = () -> (tensor<4x3xf16>, tensor<3x6xf64>), res_attrs = [{mhlo.layout_mode = "default"}, {mhlo.layout_mode = "default"}], sym_name = "inputs", sym_visibility = "private"}> ({
    %1 = "stablehlo.constant"() <{value = dense<[[-3.595700e+00, 3.619140e+00, -5.261720e+00], [1.973880e-01, -1.737300e+00, -2.189940e-01], [-2.433590e+00, 7.119140e-01, -4.019530e+00], [9.355460e-01, 2.970700e+00, -1.253910e+00]]> : tensor<4x3xf16>}> : () -> tensor<4x3xf16>
    %2 = "stablehlo.constant"() <{value = dense<[[… > : tensor<3x6xf64>}> : () -> tensor<3x6xf64>
    "func.return"(%1, %2) : (tensor<4x3xf16>, tensor<3x6xf64>) -> ()
  }) : () -> ()
  "func.func"() <{function_type = () -> tensor<4x6xf64>, res_attrs = [{mhlo.layout_mode = "default"}], sym_name = "expected", sym_visibility = "private"}> ({
    %0 = "stablehlo.constant"() <{value = dense<[[… > : tensor<4x6xf64>}> : () -> tensor<4x6xf64>
    "func.return"(%0) : (tensor<4x6xf64>) -> ()
  }) : () -> ()
}) {mhlo.num_partitions = 1 : i32, mhlo.num_replicas = 1 : i32} : () -> ()

