"builtin.module"() <{sym_name = "jit_main"}> ({
  "func.func"() <{function_type = () -> tensor<8x9xbf16>, res_attrs = [{jax.result_info = "", mhlo.layout_mode = "default"}], sym_name = "main", sym_visibility = "public"}> ({
    %6 = "func.call"() <{callee = @inputs}> : () -> tensor<8x9xbf16>
    %7 = "func.call"() <{callee = @expected}> : () -> tensor<8x9xbf16>
    %8 = "func.call"(%6) <{callee = @cummin}> : (tensor<8x9xbf16>) -> tensor<8x9xbf16>
    "stablehlo.custom_call"(%8, %7) <{call_target_name = "check.expect_close", has_side_effect = true}> : (tensor<8x9xbf16>, tensor<8x9xbf16>) -> ()
    "func.return"(%8) : (tensor<8x9xbf16>) -> ()
  }) : () -> ()
  "func.func"() <{function_type = () -> tensor<8x9xbf16>, res_attrs = [{mhlo.layout_mode = "default"}], sym_name = "inputs", sym_visibility = "private"}> ({
    %5 = "stablehlo.constant"() <{value = dense<[[… > : tensor<8x9xbf16>}> : () -> tensor<8x9xbf16>
    "func.return"(%5) : (tensor<8x9xbf16>) -> ()
  }) : () -> ()
  "func.func"() <{function_type = () -> tensor<8x9xbf16>, res_attrs = [{mhlo.layout_mode = "default"}], sym_name = "expected", sym_visibility = "private"}> ({
    %4 = "stablehlo.constant"() <{value = dense<[[… > : tensor<8x9xbf16>}> : () -> tensor<8x9xbf16>
    "func.return"(%4) : (tensor<8x9xbf16>) -> ()
  }) : () -> ()
  "func.func"() <{function_type = (tensor<8x9xbf16>) -> tensor<8x9xbf16>, sym_name = "cummin", sym_visibility = "private"}> ({
  ^bb0(%arg0: tensor<8x9xbf16>):
    %0 = "stablehlo.constant"() <{value = dense<0x7F80> : tensor<bf16>}> : () -> tensor<bf16>
    %1 = "stablehlo.broadcast_in_dim"(%0) <{broadcast_dimensions = array<i64>}> : (tensor<bf16>) -> tensor<bf16>
    %2 = "stablehlo.reduce_window"(%arg0, %1) <{padding = dense<[[7, 0], [0, 0]]> : tensor<2x2xi64>, window_dimensions = array<i64: 8, 1>}> ({
    ^bb0(%arg1: tensor<bf16>, %arg2: tensor<bf16>):
      %3 = "stablehlo.minimum"(%arg1, %arg2) : (tensor<bf16>, tensor<bf16>) -> tensor<bf16>
      "stablehlo.return"(%3) : (tensor<bf16>) -> ()
    }) : (tensor<8x9xbf16>, tensor<bf16>) -> tensor<8x9xbf16>
    "func.return"(%2) : (tensor<8x9xbf16>) -> ()
  }) : () -> ()
}) {mhlo.num_partitions = 1 : i32, mhlo.num_replicas = 1 : i32} : () -> ()

