"builtin.module"() <{sym_name = "jit_main"}> ({
  "func.func"() <{function_type = () -> tensor<2x3x6xf32>, res_attrs = [{jax.result_info = "", mhlo.layout_mode = "default"}], sym_name = "main", sym_visibility = "public"}> ({
    %3:2 = "func.call"() <{callee = @inputs}> : () -> (tensor<2x3x10xf32>, tensor<3x3x5xf32>)
    %4 = "func.call"() <{callee = @expected}> : () -> tensor<2x3x6xf32>
    %5 = "stablehlo.convolution"(%3#0, %3#1) <{batch_group_count = 1 : i64, dimension_numbers = #stablehlo.conv<[b, f, 0]x[o, i, 0]->[b, f, 0]>, feature_group_count = 1 : i64}> : (tensor<2x3x10xf32>, tensor<3x3x5xf32>) -> tensor<2x3x6xf32>
    "stablehlo.custom_call"(%5, %4) <{call_target_name = "check.expect_almost_eq", has_side_effect = true}> : (tensor<2x3x6xf32>, tensor<2x3x6xf32>) -> ()
    "func.return"(%5) : (tensor<2x3x6xf32>) -> ()
  }) : () -> ()
  "func.func"() <{function_type = () -> (tensor<2x3x10xf32>, tensor<3x3x5xf32>), res_attrs = [{mhlo.layout_mode = "default"}, {mhlo.layout_mode = "default"}], sym_name = "inputs", sym_visibility = "private"}> ({
    %1 = "stablehlo.constant"() <{value = dense<[[[… > : tensor<2x3x10xf32>}> : () -> tensor<2x3x10xf32>
    %2 = "stablehlo.constant"() <{value = dense<[[[… > : tensor<3x3x5xf32>}> : () -> tensor<3x3x5xf32>
    "func.return"(%1, %2) : (tensor<2x3x10xf32>, tensor<3x3x5xf32>) -> ()
  }) : () -> ()
  "func.func"() <{function_type = () -> tensor<2x3x6xf32>, res_attrs = [{mhlo.layout_mode = "default"}], sym_name = "expected", sym_visibility = "private"}> ({
    %0 = "stablehlo.constant"() <{value = dense<[[[… > : tensor<2x3x6xf32>}> : () -> tensor<2x3x6xf32>
    "func.return"(%0) : (tensor<2x3x6xf32>) -> ()
  }) : () -> ()
}) {mhlo.num_partitions = 1 : i32, mhlo.num_replicas = 1 : i32} : () -> ()

