"builtin.module"() <{sym_name = "jit_main"}> ({
  "func.func"() <{function_type = () -> tensor<4x2x3x5xf16>, res_attrs = [{jax.result_info = "", mhlo.layout_mode = "default"}], sym_name = "main", sym_visibility = "public"}> ({
    %3 = "stablehlo.constant"() <{value = dense<[0, 4]> : tensor<2xi64>}> : () -> tensor<2xi64>
    %4:2 = "func.call"() <{callee = @inputs}> : () -> (tensor<4x2x3x5xf16>, tensor<4x3xf16>)
    %5 = "func.call"() <{callee = @expected}> : () -> tensor<4x2x3x5xf16>
    %6 = "stablehlo.scatter"(%4#0, %3, %4#1) <{scatter_dimension_numbers = #stablehlo.scatter<update_window_dims = [0, 1], inserted_window_dims = [1, 3], scatter_dims_to_operand_dims = [1, 3]>, unique_indices = true}> ({
    ^bb0(%arg0: tensor<f16>, %arg1: tensor<f16>):
      "stablehlo.return"(%arg1) : (tensor<f16>) -> ()
    }) : (tensor<4x2x3x5xf16>, tensor<2xi64>, tensor<4x3xf16>) -> tensor<4x2x3x5xf16>
    "stablehlo.custom_call"(%6, %5) <{call_target_name = "check.expect_close", has_side_effect = true}> : (tensor<4x2x3x5xf16>, tensor<4x2x3x5xf16>) -> ()
    "func.return"(%6) : (tensor<4x2x3x5xf16>) -> ()
  }) : () -> ()
  "func.func"() <{function_type = () -> (tensor<4x2x3x5xf16>, tensor<4x3xf16>), res_attrs = [{mhlo.layout_mode = "default"}, {mhlo.layout_mode = "default"}], sym_name = "inputs", sym_visibility = "private"}> ({
    %1 = "stablehlo.constant"() <{value = dense<"…"> : tensor<4x2x3x5xf16>}> : () -> tensor<4x2x3x5xf16>
    %2 = "stablehlo.constant"() <{value = dense<[[-3.244140e+00, -4.222660e+00, 1.871090e+00], [-1.164060e+00, 7.133780e-01, -5.019530e-01], [-1.629880e+00, 8.833000e-01, 3.818360e+00], [-1.457030e+00, 8.632810e+00, -4.613280e+00]]> : tensor<4x3xf16>}> : () -> tensor<4x3xf16>
    "func.return"(%1, %2) : (tensor<4x2x3x5xf16>, tensor<4x3xf16>) -> ()
  }) : () -> ()
  "func.func"() <{function_type = () -> tensor<4x2x3x5xf16>, res_attrs = [{mhlo.layout_mode = "default"}], sym_name = "expected", sym_visibility = "private"}> ({
    %0 = "stablehlo.constant"() <{value = dense<"…"> : tensor<4x2x3x5xf16>}> : () -> tensor<4x2x3x5xf16>
    "func.return"(%0) : (tensor<4x2x3x5xf16>) -> ()
  }) : () -> ()
}) {mhlo.num_partitions = 1 : i32, mhlo.num_replicas = 1 : i32} : () -> ()

