"builtin.module"() <{sym_name = "jit_main"}> ({
  "func.func"() <{function_type = () -> tensor<1x2x3xf32>, res_attrs = [{jax.result_info = "", mhlo.layout_mode = "default"}], sym_name = "main", sym_visibility = "public"}> ({
    %3 = "stablehlo.constant"() <{value = dense<0> : tensor<1xi64>}> : () -> tensor<1xi64>
    %4:2 = "func.call"() <{callee = @inputs}> : () -> (tensor<1x2x3xf32>, tensor<2x3xf32>)
    %5 = "func.call"() <{callee = @expected}> : () -> tensor<1x2x3xf32>
    %6 = "stablehlo.scatter"(%4#0, %3, %4#1) <{scatter_dimension_numbers = #stablehlo.scatter<update_window_dims = [0, 1], inserted_window_dims = [0], scatter_dims_to_operand_dims = [0]>, unique_indices = true}> ({
    ^bb0(%arg0: tensor<f32>, %arg1: tensor<f32>):
      %7 = "stablehlo.multiply"(%arg0, %arg1) : (tensor<f32>, tensor<f32>) -> tensor<f32>
      "stablehlo.return"(%7) : (tensor<f32>) -> ()
    }) : (tensor<1x2x3xf32>, tensor<1xi64>, tensor<2x3xf32>) -> tensor<1x2x3xf32>
    "stablehlo.custom_call"(%6, %5) <{call_target_name = "check.expect_close", has_side_effect = true}> : (tensor<1x2x3xf32>, tensor<1x2x3xf32>) -> ()
    "func.return"(%6) : (tensor<1x2x3xf32>) -> ()
  }) : () -> ()
  "func.func"() <{function_type = () -> (tensor<1x2x3xf32>, tensor<2x3xf32>), res_attrs = [{mhlo.layout_mode = "default"}, {mhlo.layout_mode = "default"}], sym_name = "inputs", sym_visibility = "private"}> ({
    %1 = "stablehlo.constant"() <{value = dense<[[[-0.122195221, -1.29923785, -3.83223081], [2.83723259, -3.4494338, -1.01285279]]]> : tensor<1x2x3xf32>}> : () -> tensor<1x2x3xf32>
    %2 = "stablehlo.constant"() <{value = dense<[[-9.027910e-01, 2.17855525, 0.498746306], [0.770817637, -0.962924122, 2.12619662]]> : tensor<2x3xf32>}> : () -> tensor<2x3xf32>
    "func.return"(%1, %2) : (tensor<1x2x3xf32>, tensor<2x3xf32>) -> ()
  }) : () -> ()
  "func.func"() <{function_type = () -> tensor<1x2x3xf32>, res_attrs = [{mhlo.layout_mode = "default"}], sym_name = "expected", sym_visibility = "private"}> ({
    %0 = "stablehlo.constant"() <{value = dense<[[[0.110316746, -2.8304615, -1.91131091], [2.18698883, 3.32154298, -2.15352416]]]> : tensor<1x2x3xf32>}> : () -> tensor<1x2x3xf32>
    "func.return"(%0) : (tensor<1x2x3xf32>) -> ()
  }) : () -> ()
}) {mhlo.num_partitions = 1 : i32, mhlo.num_replicas = 1 : i32} : () -> ()

