"builtin.module"() <{sym_name = "jit_main"}> ({
  "func.func"() <{function_type = () -> tensor<2x2xf32>, res_attrs = [{jax.result_info = "", mhlo.layout_mode = "default"}], sym_name = "main", sym_visibility = "public"}> ({
    %3:2 = "func.call"() <{callee = @inputs}> : () -> (tensor<4x6xf32>, tensor<4x6xf32>)
    %4 = "func.call"() <{callee = @expected}> : () -> tensor<2x2xf32>
    %5 = "stablehlo.constant"() <{value = dense<0x7F800000> : tensor<f32>}> : () -> tensor<f32>
    %6 = "stablehlo.constant"() <{value = dense<0.000000e+00> : tensor<f32>}> : () -> tensor<f32>
    %7:2 = "stablehlo.reduce_window"(%3#1, %3#0, %5, %6) <{window_dimensions = array<i64: 2, 2>, window_strides = array<i64: 2, 3>}> ({
    ^bb0(%arg0: tensor<f32>, %arg1: tensor<f32>, %arg2: tensor<f32>, %arg3: tensor<f32>):
      %8 = "stablehlo.compare"(%arg0, %arg2) <{compare_type = #stablehlo<comparison_type FLOAT>, comparison_direction = #stablehlo<comparison_direction LE>}> : (tensor<f32>, tensor<f32>) -> tensor<i1>
      %9 = "stablehlo.select"(%8, %arg0, %arg2) : (tensor<i1>, tensor<f32>, tensor<f32>) -> tensor<f32>
      %10 = "stablehlo.select"(%8, %arg1, %arg3) : (tensor<i1>, tensor<f32>, tensor<f32>) -> tensor<f32>
      "stablehlo.return"(%9, %10) : (tensor<f32>, tensor<f32>) -> ()
    }) : (tensor<4x6xf32>, tensor<4x6xf32>, tensor<f32>, tensor<f32>) -> (tensor<2x2xf32>, tensor<2x2xf32>)
    "stablehlo.custom_call"(%7#1, %4) <{call_target_name = "check.expect_close", has_side_effect = true}> : (tensor<2x2xf32>, tensor<2x2xf32>) -> ()
    "func.return"(%7#1) : (tensor<2x2xf32>) -> ()
  }) : () -> ()
  "func.func"() <{function_type = () -> (tensor<4x6xf32>, tensor<4x6xf32>), res_attrs = [{mhlo.layout_mode = "default"}, {mhlo.layout_mode = "default"}], sym_name = "inputs", sym_visibility = "private"}> ({
    %1 = "stablehlo.constant"() <{value = dense<[[… > : tensor<4x6xf32>}> : () -> tensor<4x6xf32>
    %2 = "stablehlo.constant"() <{value = dense<[[… > : tensor<4x6xf32>}> : () -> tensor<4x6xf32>
    "func.return"(%1, %2) : (tensor<4x6xf32>, tensor<4x6xf32>) -> ()
  }) : () -> ()
  "func.func"() <{function_type = () -> tensor<2x2xf32>, res_attrs = [{mhlo.layout_mode = "default"}], sym_name = "expected", sym_visibility = "private"}> ({
    %0 = "stablehlo.constant"() <{value = dense<[[-1.13653708, -1.19028091], [3.07995915, 4.40151119]]> : tensor<2x2xf32>}> : () -> tensor<2x2xf32>
    "func.return"(%0) : (tensor<2x2xf32>) -> ()
  }) : () -> ()
}) {mhlo.num_partitions = 1 : i32, mhlo.num_replicas = 1 : i32} : () -> ()

