"builtin.module"() <{sym_name = "jit_main"}> ({
  "func.func"() <{function_type = () -> tensor<3x1x2xf32>, res_attrs = [{jax.result_info = "", mhlo.layout_mode = "default"}], sym_name = "main", sym_visibility = "public"}> ({
    %3:2 = "func.call"() <{callee = @inputs}> : () -> (tensor<7x5x3xf32>, tensor<3xi64>)
    %4 = "func.call"() <{callee = @expected}> : () -> tensor<3x1x2xf32>
    %5 = "stablehlo.slice"(%3#1) <{limit_indices = array<i64: 1>, start_indices = array<i64: 0>, strides = array<i64: 1>}> : (tensor<3xi64>) -> tensor<1xi64>
    %6 = "stablehlo.reshape"(%5) : (tensor<1xi64>) -> tensor<i64>
    %7 = "stablehlo.slice"(%3#1) <{limit_indices = array<i64: 2>, start_indices = array<i64: 1>, strides = array<i64: 1>}> : (tensor<3xi64>) -> tensor<1xi64>
    %8 = "stablehlo.reshape"(%7) : (tensor<1xi64>) -> tensor<i64>
    %9 = "stablehlo.slice"(%3#1) <{limit_indices = array<i64: 3>, start_indices = array<i64: 2>, strides = array<i64: 1>}> : (tensor<3xi64>) -> tensor<1xi64>
    %10 = "stablehlo.reshape"(%9) : (tensor<1xi64>) -> tensor<i64>
    %11 = "stablehlo.constant"() <{value = dense<0> : tensor<i64>}> : () -> tensor<i64>
    %12 = "stablehlo.compare"(%6, %11) <{compare_type = #stablehlo<comparison_type SIGNED>, comparison_direction = #stablehlo<comparison_direction LT>}> : (tensor<i64>, tensor<i64>) -> tensor<i1>
    %13 = "stablehlo.constant"() <{value = dense<7> : tensor<i64>}> : () -> tensor<i64>
    %14 = "stablehlo.add"(%6, %13) : (tensor<i64>, tensor<i64>) -> tensor<i64>
    %15 = "stablehlo.select"(%12, %14, %6) : (tensor<i1>, tensor<i64>, tensor<i64>) -> tensor<i64>
    %16 = "stablehlo.constant"() <{value = dense<0> : tensor<i64>}> : () -> tensor<i64>
    %17 = "stablehlo.compare"(%8, %16) <{compare_type = #stablehlo<comparison_type SIGNED>, comparison_direction = #stablehlo<comparison_direction LT>}> : (tensor<i64>, tensor<i64>) -> tensor<i1>
    %18 = "stablehlo.constant"() <{value = dense<5> : tensor<i64>}> : () -> tensor<i64>
    %19 = "stablehlo.add"(%8, %18) : (tensor<i64>, tensor<i64>) -> tensor<i64>
    %20 = "stablehlo.select"(%17, %19, %8) : (tensor<i1>, tensor<i64>, tensor<i64>) -> tensor<i64>
    %21 = "stablehlo.constant"() <{value = dense<0> : tensor<i64>}> : () -> tensor<i64>
    %22 = "stablehlo.compare"(%10, %21) <{compare_type = #stablehlo<comparison_type SIGNED>, comparison_direction = #stablehlo<comparison_direction LT>}> : (tensor<i64>, tensor<i64>) -> tensor<i1>
    %23 = "stablehlo.constant"() <{value = dense<3> : tensor<i64>}> : () -> tensor<i64>
    %24 = "stablehlo.add"(%10, %23) : (tensor<i64>, tensor<i64>) -> tensor<i64>
    %25 = "stablehlo.select"(%22, %24, %10) : (tensor<i1>, tensor<i64>, tensor<i64>) -> tensor<i64>
    %26 = "stablehlo.dynamic_slice"(%3#0, %15, %20, %25) <{slice_sizes = array<i64: 3, 1, 2>}> : (tensor<7x5x3xf32>, tensor<i64>, tensor<i64>, tensor<i64>) -> tensor<3x1x2xf32>
    "stablehlo.custom_call"(%26, %4) <{call_target_name = "check.expect_close", has_side_effect = true}> : (tensor<3x1x2xf32>, tensor<3x1x2xf32>) -> ()
    "func.return"(%26) : (tensor<3x1x2xf32>) -> ()
  }) : () -> ()
  "func.func"() <{function_type = () -> (tensor<7x5x3xf32>, tensor<3xi64>), res_attrs = [{mhlo.layout_mode = "default"}, {mhlo.layout_mode = "default"}], sym_name = "inputs", sym_visibility = "private"}> ({
    %1 = "stablehlo.constant"() <{value = dense<"…"> : tensor<7x5x3xf32>}> : () -> tensor<7x5x3xf32>
    %2 = "stablehlo.constant"() <{value = dense<[4, 0, 1]> : tensor<3xi64>}> : () -> tensor<3xi64>
    "func.return"(%1, %2) : (tensor<7x5x3xf32>, tensor<3xi64>) -> ()
  }) : () -> ()
  "func.func"() <{function_type = () -> tensor<3x1x2xf32>, res_attrs = [{mhlo.layout_mode = "default"}], sym_name = "expected", sym_visibility = "private"}> ({
    %0 = "stablehlo.constant"() <{value = dense<[[[-0.0722185448, -2.81547022]], [[0.421751916, 0.110802852]], [[-1.531057, 6.42326403]]]> : tensor<3x1x2xf32>}> : () -> tensor<3x1x2xf32>
    "func.return"(%0) : (tensor<3x1x2xf32>) -> ()
  }) : () -> ()
}) {mhlo.num_partitions = 1 : i32, mhlo.num_replicas = 1 : i32} : () -> ()

