"builtin.module"() <{sym_name = "jit_main"}> ({
  "func.func"() <{function_type = () -> tensor<4x6xbf16>, res_attrs = [{jax.result_info = "", mhlo.layout_mode = "default"}], sym_name = "main", sym_visibility = "public"}> ({
    %3:2 = "func.call"() <{callee = @inputs}> : () -> (tensor<4x3xi64>, tensor<3x6xbf16>)
    %4 = "func.call"() <{callee = @expected}> : () -> tensor<4x6xbf16>
    %5 = "stablehlo.convert"(%3#0) : (tensor<4x3xi64>) -> tensor<4x3xbf16>
    %6 = "stablehlo.convert"(%3#1) : (tensor<3x6xbf16>) -> tensor<3x6xbf16>
    %7 = "stablehlo.dot_general"(%5, %6) <{dot_dimension_numbers = #stablehlo.dot<lhs_contracting_dimensions = [1], rhs_contracting_dimensions = [0]>}> : (tensor<4x3xbf16>, tensor<3x6xbf16>) -> tensor<4x6xbf16>
    "stablehlo.custom_call"(%7, %4) <{call_target_name = "check.expect_close", has_side_effect = true}> : (tensor<4x6xbf16>, tensor<4x6xbf16>) -> ()
    "func.return"(%7) : (tensor<4x6xbf16>) -> ()
  }) : () -> ()
  "func.func"() <{function_type = () -> (tensor<4x3xi64>, tensor<3x6xbf16>), res_attrs = [{mhlo.layout_mode = "default"}, {mhlo.layout_mode = "default"}], sym_name = "inputs", sym_visibility = "private"}> ({
    %1 = "stablehlo.constant"() <{value = dense<[[2, 9, 2], [0, -4, 0], [-1, -2, 0], [-3, 2, -3]]> : tensor<4x3xi64>}> : () -> tensor<4x3xi64>
    %2 = "stablehlo.constant"() <{value = dense<[[… > : tensor<3x6xbf16>}> : () -> tensor<3x6xbf16>
    "func.return"(%1, %2) : (tensor<4x3xi64>, tensor<3x6xbf16>) -> ()
  }) : () -> ()
  "func.func"() <{function_type = () -> tensor<4x6xbf16>, res_attrs = [{mhlo.layout_mode = "default"}], sym_name = "expected", sym_visibility = "private"}> ({
    %0 = "stablehlo.constant"() <{value = dense<[[… > : tensor<4x6xbf16>}> : () -> tensor<4x6xbf16>
    "func.return"(%0) : (tensor<4x6xbf16>) -> ()
  }) : () -> ()
}) {mhlo.num_partitions = 1 : i32, mhlo.num_replicas = 1 : i32} : () -> ()

