"builtin.module"() <{sym_name = "jit_main"}> ({
  "func.func"() <{function_type = () -> tensor<20x20xf32>, res_attrs = [{jax.result_info = "", mhlo.layout_mode = "default"}], sym_name = "main", sym_visibility = "public"}> ({
    %5:2 = "func.call"() <{callee = @inputs}> : () -> (tensor<20x20xf32>, tensor<20x20xf32>)
    %6 = "func.call"() <{callee = @expected}> : () -> tensor<20x20xf32>
    %7 = "stablehlo.compare"(%5#0, %5#0) <{compare_type = #stablehlo<comparison_type FLOAT>, comparison_direction = #stablehlo<comparison_direction NE>}> : (tensor<20x20xf32>, tensor<20x20xf32>) -> tensor<20x20xi1>
    %8 = "stablehlo.compare"(%5#1, %5#1) <{compare_type = #stablehlo<comparison_type FLOAT>, comparison_direction = #stablehlo<comparison_direction NE>}> : (tensor<20x20xf32>, tensor<20x20xf32>) -> tensor<20x20xi1>
    %9 = "stablehlo.or"(%7, %8) : (tensor<20x20xi1>, tensor<20x20xi1>) -> tensor<20x20xi1>
    %10 = "stablehlo.constant"() <{value = dense<0.000000e+00> : tensor<f32>}> : () -> tensor<f32>
    %11 = "stablehlo.broadcast_in_dim"(%10) <{broadcast_dimensions = array<i64>}> : (tensor<f32>) -> tensor<20x20xf32>
    %12 = "stablehlo.compare"(%5#1, %11) <{compare_type = #stablehlo<comparison_type FLOAT>, comparison_direction = #stablehlo<comparison_direction EQ>}> : (tensor<20x20xf32>, tensor<20x20xf32>) -> tensor<20x20xi1>
    %13 = "stablehlo.constant"() <{value = dense<0x7F800000> : tensor<f32>}> : () -> tensor<f32>
    %14 = "stablehlo.broadcast_in_dim"(%13) <{broadcast_dimensions = array<i64>}> : (tensor<f32>) -> tensor<20x20xf32>
    %15 = "stablehlo.compare"(%5#1, %14) <{compare_type = #stablehlo<comparison_type FLOAT>, comparison_direction = #stablehlo<comparison_direction EQ>}> : (tensor<20x20xf32>, tensor<20x20xf32>) -> tensor<20x20xi1>
    %16 = "stablehlo.constant"() <{value = dense<0.000000e+00> : tensor<f32>}> : () -> tensor<f32>
    %17 = "stablehlo.broadcast_in_dim"(%16) <{broadcast_dimensions = array<i64>}> : (tensor<f32>) -> tensor<20x20xf32>
    %18 = "stablehlo.compare"(%5#1, %17) <{compare_type = #stablehlo<comparison_type FLOAT>, comparison_direction = #stablehlo<comparison_direction LT>}> : (tensor<20x20xf32>, tensor<20x20xf32>) -> tensor<20x20xi1>
    %19 = "stablehlo.constant"() <{value = dense<0.000000e+00> : tensor<f32>}> : () -> tensor<f32>
    %20 = "stablehlo.broadcast_in_dim"(%19) <{broadcast_dimensions = array<i64>}> : (tensor<f32>) -> tensor<20x20xf32>
    %21 = "stablehlo.compare"(%5#0, %20) <{compare_type = #stablehlo<comparison_type FLOAT>, comparison_direction = #stablehlo<comparison_direction LE>}> : (tensor<20x20xf32>, tensor<20x20xf32>) -> tensor<20x20xi1>
    %22 = "stablehlo.or"(%18, %21) : (tensor<20x20xi1>, tensor<20x20xi1>) -> tensor<20x20xi1>
    %23 = "stablehlo.constant"() <{value = dense<1.000000e+00> : tensor<f32>}> : () -> tensor<f32>
    %24 = "stablehlo.broadcast_in_dim"(%23) <{broadcast_dimensions = array<i64>}> : (tensor<f32>) -> tensor<20x20xf32>
    %25 = "stablehlo.compare"(%5#1, %24) <{compare_type = #stablehlo<comparison_type FLOAT>, comparison_direction = #stablehlo<comparison_direction GT>}> : (tensor<20x20xf32>, tensor<20x20xf32>) -> tensor<20x20xi1>
    %26 = "stablehlo.compare"(%5#1, %5#0) <{compare_type = #stablehlo<comparison_type FLOAT>, comparison_direction = #stablehlo<comparison_direction GT>}> : (tensor<20x20xf32>, tensor<20x20xf32>) -> tensor<20x20xi1>
    %27 = "stablehlo.and"(%25, %26) : (tensor<20x20xi1>, tensor<20x20xi1>) -> tensor<20x20xi1>
    %28 = "stablehlo.log"(%5#1) : (tensor<20x20xf32>) -> tensor<20x20xf32>
    %29 = "stablehlo.multiply"(%5#0, %28) : (tensor<20x20xf32>, tensor<20x20xf32>) -> tensor<20x20xf32>
    %30 = "stablehlo.subtract"(%29, %5#1) : (tensor<20x20xf32>, tensor<20x20xf32>) -> tensor<20x20xf32>
    %31 = "chlo.lgamma"(%5#0) : (tensor<20x20xf32>) -> tensor<20x20xf32>
    %32 = "stablehlo.subtract"(%30, %31) : (tensor<20x20xf32>, tensor<20x20xf32>) -> tensor<20x20xf32>
    %33 = "stablehlo.constant"() <{value = dense<3.40282347E+38> : tensor<f32>}> : () -> tensor<f32>
    %34 = "stablehlo.log"(%33) : (tensor<f32>) -> tensor<f32>
    %35 = "stablehlo.negate"(%34) : (tensor<f32>) -> tensor<f32>
    %36 = "stablehlo.broadcast_in_dim"(%35) <{broadcast_dimensions = array<i64>}> : (tensor<f32>) -> tensor<20x20xf32>
    %37 = "stablehlo.compare"(%32, %36) <{compare_type = #stablehlo<comparison_type FLOAT>, comparison_direction = #stablehlo<comparison_direction LT>}> : (tensor<20x20xf32>, tensor<20x20xf32>) -> tensor<20x20xi1>
    %38 = "stablehlo.exponential"(%32) : (tensor<20x20xf32>) -> tensor<20x20xf32>
    %39 = "stablehlo.or"(%12, %22) : (tensor<20x20xi1>, tensor<20x20xi1>) -> tensor<20x20xi1>
    %40 = "stablehlo.or"(%39, %37) : (tensor<20x20xi1>, tensor<20x20xi1>) -> tensor<20x20xi1>
    %41 = "stablehlo.or"(%40, %9) : (tensor<20x20xi1>, tensor<20x20xi1>) -> tensor<20x20xi1>
    %42 = "stablehlo.not"(%41) : (tensor<20x20xi1>) -> tensor<20x20xi1>
    %43 = "stablehlo.and"(%42, %27) : (tensor<20x20xi1>, tensor<20x20xi1>) -> tensor<20x20xi1>
    %44 = "stablehlo.constant"() <{value = dense<1.000000e+00> : tensor<f32>}> : () -> tensor<f32>
    %45 = "stablehlo.broadcast_in_dim"(%44) <{broadcast_dimensions = array<i64>}> : (tensor<f32>) -> tensor<20x20xf32>
    %46 = "stablehlo.subtract"(%45, %5#0) : (tensor<20x20xf32>, tensor<20x20xf32>) -> tensor<20x20xf32>
    %47 = "stablehlo.add"(%5#1, %46) : (tensor<20x20xf32>, tensor<20x20xf32>) -> tensor<20x20xf32>
    %48 = "stablehlo.constant"() <{value = dense<1.000000e+00> : tensor<f32>}> : () -> tensor<f32>
    %49 = "stablehlo.broadcast_in_dim"(%48) <{broadcast_dimensions = array<i64>}> : (tensor<f32>) -> tensor<20x20xf32>
    %50 = "stablehlo.add"(%47, %49) : (tensor<20x20xf32>, tensor<20x20xf32>) -> tensor<20x20xf32>
    %51 = "stablehlo.constant"() <{value = dense<1.000000e+00> : tensor<f32>}> : () -> tensor<f32>
    %52 = "stablehlo.broadcast_in_dim"(%51) <{broadcast_dimensions = array<i64>}> : (tensor<f32>) -> tensor<20x20xf32>
    %53 = "stablehlo.constant"() <{value = dense<1.000000e+00> : tensor<f32>}> : () -> tensor<f32>
    %54 = "stablehlo.broadcast_in_dim"(%53) <{broadcast_dimensions = array<i64>}> : (tensor<f32>) -> tensor<20x20xf32>
    %55 = "stablehlo.add"(%5#1, %54) : (tensor<20x20xf32>, tensor<20x20xf32>) -> tensor<20x20xf32>
    %56 = "stablehlo.multiply"(%50, %5#1) : (tensor<20x20xf32>, tensor<20x20xf32>) -> tensor<20x20xf32>
    %57 = "stablehlo.divide"(%55, %56) : (tensor<20x20xf32>, tensor<20x20xf32>) -> tensor<20x20xf32>
    %58 = "stablehlo.constant"() <{value = dense<1.000000e+00> : tensor<f32>}> : () -> tensor<f32>
    %59 = "stablehlo.broadcast_in_dim"(%58) <{broadcast_dimensions = array<i64>}> : (tensor<f32>) -> tensor<20x20xf32>
    %60 = "stablehlo.constant"() <{value = dense<0.000000e+00> : tensor<f32>}> : () -> tensor<f32>
    %61 = "stablehlo.broadcast_in_dim"(%60) <{broadcast_dimensions = array<i64>}> : (tensor<f32>) -> tensor<20x20xf32>
    %62 = "stablehlo.constant"() <{value = dense<0.000000e+00> : tensor<f32>}> : () -> tensor<f32>
    %63 = "stablehlo.broadcast_in_dim"(%62) <{broadcast_dimensions = array<i64>}> : (tensor<f32>) -> tensor<20x20xf32>
    %64 = "stablehlo.constant"() <{value = dense<0.000000e+00> : tensor<f32>}> : () -> tensor<f32>
    %65 = "stablehlo.broadcast_in_dim"(%64) <{broadcast_dimensions = array<i64>}> : (tensor<f32>) -> tensor<20x20xf32>
    %66 = "stablehlo.negate"(%5#1) : (tensor<20x20xf32>) -> tensor<20x20xf32>
    %67 = "stablehlo.multiply"(%57, %66) : (tensor<20x20xf32>, tensor<20x20xf32>) -> tensor<20x20xf32>
    %68 = "stablehlo.subtract"(%65, %67) : (tensor<20x20xf32>, tensor<20x20xf32>) -> tensor<20x20xf32>
    %69 = "stablehlo.divide"(%68, %56) : (tensor<20x20xf32>, tensor<20x20xf32>) -> tensor<20x20xf32>
    %70 = "stablehlo.constant"() <{value = dense<0.000000e+00> : tensor<f32>}> : () -> tensor<f32>
    %71:15 = "stablehlo.while"(%43, %57, %59, %46, %50, %70, %55, %56, %52, %5#1, %61, %63, %65, %66, %69) ({
    ^bb0(%arg32: tensor<20x20xi1>, %arg33: tensor<20x20xf32>, %arg34: tensor<20x20xf32>, %arg35: tensor<20x20xf32>, %arg36: tensor<20x20xf32>, %arg37: tensor<f32>, %arg38: tensor<20x20xf32>, %arg39: tensor<20x20xf32>, %arg40: tensor<20x20xf32>, %arg41: tensor<20x20xf32>, %arg42: tensor<20x20xf32>, %arg43: tensor<20x20xf32>, %arg44: tensor<20x20xf32>, %arg45: tensor<20x20xf32>, %arg46: tensor<20x20xf32>):
      %231 = "stablehlo.constant"() <{value = dense<2.000000e+03> : tensor<f32>}> : () -> tensor<f32>
      %232 = "stablehlo.compare"(%arg37, %231) <{compare_type = #stablehlo<comparison_type FLOAT>, comparison_direction = #stablehlo<comparison_direction LT>}> : (tensor<f32>, tensor<f32>) -> tensor<i1>
      %233 = "stablehlo.constant"() <{value = dense<false> : tensor<i1>}> : () -> tensor<i1>
      %234 = "stablehlo.reduce"(%arg32, %233) <{dimensions = array<i64: 0, 1>}> ({
      ^bb0(%arg47: tensor<i1>, %arg48: tensor<i1>):
        %236 = "stablehlo.or"(%arg47, %arg48) : (tensor<i1>, tensor<i1>) -> tensor<i1>
        "stablehlo.return"(%236) : (tensor<i1>) -> ()
      }) : (tensor<20x20xi1>, tensor<i1>) -> tensor<i1>
      %235 = "stablehlo.and"(%232, %234) : (tensor<i1>, tensor<i1>) -> tensor<i1>
      "stablehlo.return"(%235) : (tensor<i1>) -> ()
    }, {
    ^bb0(%arg17: tensor<20x20xi1>, %arg18: tensor<20x20xf32>, %arg19: tensor<20x20xf32>, %arg20: tensor<20x20xf32>, %arg21: tensor<20x20xf32>, %arg22: tensor<f32>, %arg23: tensor<20x20xf32>, %arg24: tensor<20x20xf32>, %arg25: tensor<20x20xf32>, %arg26: tensor<20x20xf32>, %arg27: tensor<20x20xf32>, %arg28: tensor<20x20xf32>, %arg29: tensor<20x20xf32>, %arg30: tensor<20x20xf32>, %arg31: tensor<20x20xf32>):
      %127 = "stablehlo.constant"() <{value = dense<1.000000e+00> : tensor<f32>}> : () -> tensor<f32>
      %128 = "stablehlo.add"(%arg22, %127) : (tensor<f32>, tensor<f32>) -> tensor<f32>
      %129 = "stablehlo.constant"() <{value = dense<1.000000e+00> : tensor<f32>}> : () -> tensor<f32>
      %130 = "stablehlo.broadcast_in_dim"(%129) <{broadcast_dimensions = array<i64>}> : (tensor<f32>) -> tensor<20x20xf32>
      %131 = "stablehlo.add"(%arg20, %130) : (tensor<20x20xf32>, tensor<20x20xf32>) -> tensor<20x20xf32>
      %132 = "stablehlo.constant"() <{value = dense<2.000000e+00> : tensor<f32>}> : () -> tensor<f32>
      %133 = "stablehlo.broadcast_in_dim"(%132) <{broadcast_dimensions = array<i64>}> : (tensor<f32>) -> tensor<20x20xf32>
      %134 = "stablehlo.add"(%arg21, %133) : (tensor<20x20xf32>, tensor<20x20xf32>) -> tensor<20x20xf32>
      %135 = "stablehlo.broadcast_in_dim"(%128) <{broadcast_dimensions = array<i64>}> : (tensor<f32>) -> tensor<20x20xf32>
      %136 = "stablehlo.multiply"(%131, %135) : (tensor<20x20xf32>, tensor<20x20xf32>) -> tensor<20x20xf32>
      %137 = "stablehlo.multiply"(%arg23, %134) : (tensor<20x20xf32>, tensor<20x20xf32>) -> tensor<20x20xf32>
      %138 = "stablehlo.multiply"(%arg25, %136) : (tensor<20x20xf32>, tensor<20x20xf32>) -> tensor<20x20xf32>
      %139 = "stablehlo.subtract"(%137, %138) : (tensor<20x20xf32>, tensor<20x20xf32>) -> tensor<20x20xf32>
      %140 = "stablehlo.multiply"(%arg24, %134) : (tensor<20x20xf32>, tensor<20x20xf32>) -> tensor<20x20xf32>
      %141 = "stablehlo.multiply"(%arg26, %136) : (tensor<20x20xf32>, tensor<20x20xf32>) -> tensor<20x20xf32>
      %142 = "stablehlo.subtract"(%140, %141) : (tensor<20x20xf32>, tensor<20x20xf32>) -> tensor<20x20xf32>
      %143 = "stablehlo.constant"() <{value = dense<0.000000e+00> : tensor<f32>}> : () -> tensor<f32>
      %144 = "stablehlo.broadcast_in_dim"(%143) <{broadcast_dimensions = array<i64>}> : (tensor<f32>) -> tensor<20x20xf32>
      %145 = "stablehlo.compare"(%142, %144) <{compare_type = #stablehlo<comparison_type FLOAT>, comparison_direction = #stablehlo<comparison_direction NE>}> : (tensor<20x20xf32>, tensor<20x20xf32>) -> tensor<20x20xi1>
      %146 = "stablehlo.divide"(%139, %142) : (tensor<20x20xf32>, tensor<20x20xf32>) -> tensor<20x20xf32>
      %147 = "stablehlo.subtract"(%arg18, %146) : (tensor<20x20xf32>, tensor<20x20xf32>) -> tensor<20x20xf32>
      %148 = "stablehlo.divide"(%147, %146) : (tensor<20x20xf32>, tensor<20x20xf32>) -> tensor<20x20xf32>
      %149 = "stablehlo.abs"(%148) : (tensor<20x20xf32>) -> tensor<20x20xf32>
      %150 = "stablehlo.constant"() <{value = dense<1.000000e+00> : tensor<f32>}> : () -> tensor<f32>
      %151 = "stablehlo.broadcast_in_dim"(%150) <{broadcast_dimensions = array<i64>}> : (tensor<f32>) -> tensor<20x20xf32>
      %152 = "stablehlo.select"(%145, %149, %151) : (tensor<20x20xi1>, tensor<20x20xf32>, tensor<20x20xf32>) -> tensor<20x20xf32>
      %153 = "stablehlo.select"(%145, %146, %arg18) : (tensor<20x20xi1>, tensor<20x20xf32>, tensor<20x20xf32>) -> tensor<20x20xf32>
      %154 = "stablehlo.multiply"(%arg29, %134) : (tensor<20x20xf32>, tensor<20x20xf32>) -> tensor<20x20xf32>
      %155 = "stablehlo.subtract"(%154, %arg23) : (tensor<20x20xf32>, tensor<20x20xf32>) -> tensor<20x20xf32>
      %156 = "stablehlo.multiply"(%arg27, %136) : (tensor<20x20xf32>, tensor<20x20xf32>) -> tensor<20x20xf32>
      %157 = "stablehlo.subtract"(%155, %156) : (tensor<20x20xf32>, tensor<20x20xf32>) -> tensor<20x20xf32>
      %158 = "stablehlo.broadcast_in_dim"(%128) <{broadcast_dimensions = array<i64>}> : (tensor<f32>) -> tensor<20x20xf32>
      %159 = "stablehlo.multiply"(%arg25, %158) : (tensor<20x20xf32>, tensor<20x20xf32>) -> tensor<20x20xf32>
      %160 = "stablehlo.add"(%157, %159) : (tensor<20x20xf32>, tensor<20x20xf32>) -> tensor<20x20xf32>
      %161 = "stablehlo.multiply"(%arg30, %134) : (tensor<20x20xf32>, tensor<20x20xf32>) -> tensor<20x20xf32>
      %162 = "stablehlo.subtract"(%161, %arg24) : (tensor<20x20xf32>, tensor<20x20xf32>) -> tensor<20x20xf32>
      %163 = "stablehlo.multiply"(%arg28, %136) : (tensor<20x20xf32>, tensor<20x20xf32>) -> tensor<20x20xf32>
      %164 = "stablehlo.subtract"(%162, %163) : (tensor<20x20xf32>, tensor<20x20xf32>) -> tensor<20x20xf32>
      %165 = "stablehlo.broadcast_in_dim"(%128) <{broadcast_dimensions = array<i64>}> : (tensor<f32>) -> tensor<20x20xf32>
      %166 = "stablehlo.multiply"(%arg26, %165) : (tensor<20x20xf32>, tensor<20x20xf32>) -> tensor<20x20xf32>
      %167 = "stablehlo.add"(%164, %166) : (tensor<20x20xf32>, tensor<20x20xf32>) -> tensor<20x20xf32>
      %168 = "stablehlo.multiply"(%153, %167) : (tensor<20x20xf32>, tensor<20x20xf32>) -> tensor<20x20xf32>
      %169 = "stablehlo.subtract"(%160, %168) : (tensor<20x20xf32>, tensor<20x20xf32>) -> tensor<20x20xf32>
      %170 = "stablehlo.divide"(%169, %142) : (tensor<20x20xf32>, tensor<20x20xf32>) -> tensor<20x20xf32>
      %171 = "stablehlo.select"(%145, %170, %arg31) : (tensor<20x20xi1>, tensor<20x20xf32>, tensor<20x20xf32>) -> tensor<20x20xf32>
      %172 = "stablehlo.subtract"(%171, %arg31) : (tensor<20x20xf32>, tensor<20x20xf32>) -> tensor<20x20xf32>
      %173 = "stablehlo.abs"(%172) : (tensor<20x20xf32>) -> tensor<20x20xf32>
      %174 = "stablehlo.constant"() <{value = dense<1.000000e+00> : tensor<f32>}> : () -> tensor<f32>
      %175 = "stablehlo.broadcast_in_dim"(%174) <{broadcast_dimensions = array<i64>}> : (tensor<f32>) -> tensor<20x20xf32>
      %176 = "stablehlo.select"(%145, %173, %175) : (tensor<20x20xi1>, tensor<20x20xf32>, tensor<20x20xf32>) -> tensor<20x20xf32>
      %177 = "stablehlo.abs"(%139) : (tensor<20x20xf32>) -> tensor<20x20xf32>
      %178 = "stablehlo.constant"() <{value = dense<1.1920929E-7> : tensor<f32>}> : () -> tensor<f32>
      %179 = "func.call"(%178) <{callee = @integer_pow}> : (tensor<f32>) -> tensor<f32>
      %180 = "stablehlo.broadcast_in_dim"(%179) <{broadcast_dimensions = array<i64>}> : (tensor<f32>) -> tensor<20x20xf32>
      %181 = "stablehlo.compare"(%177, %180) <{compare_type = #stablehlo<comparison_type FLOAT>, comparison_direction = #stablehlo<comparison_direction GT>}> : (tensor<20x20xf32>, tensor<20x20xf32>) -> tensor<20x20xi1>
      %182 = "stablehlo.constant"() <{value = dense<1.1920929E-7> : tensor<f32>}> : () -> tensor<f32>
      %183 = "stablehlo.broadcast_in_dim"(%182) <{broadcast_dimensions = array<i64>}> : (tensor<f32>) -> tensor<20x20xf32>
      %184 = "stablehlo.multiply"(%arg23, %183) : (tensor<20x20xf32>, tensor<20x20xf32>) -> tensor<20x20xf32>
      %185 = "stablehlo.select"(%181, %184, %arg23) : (tensor<20x20xi1>, tensor<20x20xf32>, tensor<20x20xf32>) -> tensor<20x20xf32>
      %186 = "stablehlo.constant"() <{value = dense<1.1920929E-7> : tensor<f32>}> : () -> tensor<f32>
      %187 = "stablehlo.broadcast_in_dim"(%186) <{broadcast_dimensions = array<i64>}> : (tensor<f32>) -> tensor<20x20xf32>
      %188 = "stablehlo.multiply"(%139, %187) : (tensor<20x20xf32>, tensor<20x20xf32>) -> tensor<20x20xf32>
      %189 = "stablehlo.select"(%181, %188, %139) : (tensor<20x20xi1>, tensor<20x20xf32>, tensor<20x20xf32>) -> tensor<20x20xf32>
      %190 = "stablehlo.constant"() <{value = dense<1.1920929E-7> : tensor<f32>}> : () -> tensor<f32>
      %191 = "stablehlo.broadcast_in_dim"(%190) <{broadcast_dimensions = array<i64>}> : (tensor<f32>) -> tensor<20x20xf32>
      %192 = "stablehlo.multiply"(%arg24, %191) : (tensor<20x20xf32>, tensor<20x20xf32>) -> tensor<20x20xf32>
      %193 = "stablehlo.select"(%181, %192, %arg24) : (tensor<20x20xi1>, tensor<20x20xf32>, tensor<20x20xf32>) -> tensor<20x20xf32>
      %194 = "stablehlo.constant"() <{value = dense<1.1920929E-7> : tensor<f32>}> : () -> tensor<f32>
      %195 = "stablehlo.broadcast_in_dim"(%194) <{broadcast_dimensions = array<i64>}> : (tensor<f32>) -> tensor<20x20xf32>
      %196 = "stablehlo.multiply"(%142, %195) : (tensor<20x20xf32>, tensor<20x20xf32>) -> tensor<20x20xf32>
      %197 = "stablehlo.select"(%181, %196, %142) : (tensor<20x20xi1>, tensor<20x20xf32>, tensor<20x20xf32>) -> tensor<20x20xf32>
      %198 = "stablehlo.constant"() <{value = dense<1.1920929E-7> : tensor<f32>}> : () -> tensor<f32>
      %199 = "stablehlo.broadcast_in_dim"(%198) <{broadcast_dimensions = array<i64>}> : (tensor<f32>) -> tensor<20x20xf32>
      %200 = "stablehlo.multiply"(%arg29, %199) : (tensor<20x20xf32>, tensor<20x20xf32>) -> tensor<20x20xf32>
      %201 = "stablehlo.select"(%181, %200, %arg29) : (tensor<20x20xi1>, tensor<20x20xf32>, tensor<20x20xf32>) -> tensor<20x20xf32>
      %202 = "stablehlo.constant"() <{value = dense<1.1920929E-7> : tensor<f32>}> : () -> tensor<f32>
      %203 = "stablehlo.broadcast_in_dim"(%202) <{broadcast_dimensions = array<i64>}> : (tensor<f32>) -> tensor<20x20xf32>
      %204 = "stablehlo.multiply"(%arg30, %203) : (tensor<20x20xf32>, tensor<20x20xf32>) -> tensor<20x20xf32>
      %205 = "stablehlo.select"(%181, %204, %arg30) : (tensor<20x20xi1>, tensor<20x20xf32>, tensor<20x20xf32>) -> tensor<20x20xf32>
      %206 = "stablehlo.constant"() <{value = dense<1.1920929E-7> : tensor<f32>}> : () -> tensor<f32>
      %207 = "stablehlo.broadcast_in_dim"(%206) <{broadcast_dimensions = array<i64>}> : (tensor<f32>) -> tensor<20x20xf32>
      %208 = "stablehlo.multiply"(%160, %207) : (tensor<20x20xf32>, tensor<20x20xf32>) -> tensor<20x20xf32>
      %209 = "stablehlo.select"(%181, %208, %160) : (tensor<20x20xi1>, tensor<20x20xf32>, tensor<20x20xf32>) -> tensor<20x20xf32>
      %210 = "stablehlo.constant"() <{value = dense<1.1920929E-7> : tensor<f32>}> : () -> tensor<f32>
      %211 = "stablehlo.broadcast_in_dim"(%210) <{broadcast_dimensions = array<i64>}> : (tensor<f32>) -> tensor<20x20xf32>
      %212 = "stablehlo.multiply"(%167, %211) : (tensor<20x20xf32>, tensor<20x20xf32>) -> tensor<20x20xf32>
      %213 = "stablehlo.select"(%181, %212, %167) : (tensor<20x20xi1>, tensor<20x20xf32>, tensor<20x20xf32>) -> tensor<20x20xf32>
      %214 = "stablehlo.constant"() <{value = dense<1.1920929E-7> : tensor<f32>}> : () -> tensor<f32>
      %215 = "stablehlo.broadcast_in_dim"(%214) <{broadcast_dimensions = array<i64>}> : (tensor<f32>) -> tensor<20x20xf32>
      %216 = "stablehlo.compare"(%152, %215) <{compare_type = #stablehlo<comparison_type FLOAT>, comparison_direction = #stablehlo<comparison_direction GT>}> : (tensor<20x20xf32>, tensor<20x20xf32>) -> tensor<20x20xi1>
      %217 = "stablehlo.and"(%arg17, %216) : (tensor<20x20xi1>, tensor<20x20xi1>) -> tensor<20x20xi1>
      %218 = "stablehlo.select"(%arg17, %153, %arg18) : (tensor<20x20xi1>, tensor<20x20xf32>, tensor<20x20xf32>) -> tensor<20x20xf32>
      %219 = "stablehlo.select"(%arg17, %152, %arg19) : (tensor<20x20xi1>, tensor<20x20xf32>, tensor<20x20xf32>) -> tensor<20x20xf32>
      %220 = "stablehlo.select"(%arg17, %131, %arg20) : (tensor<20x20xi1>, tensor<20x20xf32>, tensor<20x20xf32>) -> tensor<20x20xf32>
      %221 = "stablehlo.select"(%arg17, %134, %arg21) : (tensor<20x20xi1>, tensor<20x20xf32>, tensor<20x20xf32>) -> tensor<20x20xf32>
      %222 = "stablehlo.select"(%arg17, %189, %arg23) : (tensor<20x20xi1>, tensor<20x20xf32>, tensor<20x20xf32>) -> tensor<20x20xf32>
      %223 = "stablehlo.select"(%arg17, %197, %arg24) : (tensor<20x20xi1>, tensor<20x20xf32>, tensor<20x20xf32>) -> tensor<20x20xf32>
      %224 = "stablehlo.select"(%arg17, %185, %arg25) : (tensor<20x20xi1>, tensor<20x20xf32>, tensor<20x20xf32>) -> tensor<20x20xf32>
      %225 = "stablehlo.select"(%arg17, %193, %arg26) : (tensor<20x20xi1>, tensor<20x20xf32>, tensor<20x20xf32>) -> tensor<20x20xf32>
      %226 = "stablehlo.select"(%arg17, %201, %arg27) : (tensor<20x20xi1>, tensor<20x20xf32>, tensor<20x20xf32>) -> tensor<20x20xf32>
      %227 = "stablehlo.select"(%arg17, %205, %arg28) : (tensor<20x20xi1>, tensor<20x20xf32>, tensor<20x20xf32>) -> tensor<20x20xf32>
      %228 = "stablehlo.select"(%arg17, %209, %arg29) : (tensor<20x20xi1>, tensor<20x20xf32>, tensor<20x20xf32>) -> tensor<20x20xf32>
      %229 = "stablehlo.select"(%arg17, %213, %arg30) : (tensor<20x20xi1>, tensor<20x20xf32>, tensor<20x20xf32>) -> tensor<20x20xf32>
      %230 = "stablehlo.select"(%arg17, %171, %arg31) : (tensor<20x20xi1>, tensor<20x20xf32>, tensor<20x20xf32>) -> tensor<20x20xf32>
      "stablehlo.return"(%217, %218, %219, %220, %221, %128, %222, %223, %224, %225, %226, %227, %228, %229, %230) : (tensor<20x20xi1>, tensor<20x20xf32>, tensor<20x20xf32>, tensor<20x20xf32>, tensor<20x20xf32>, tensor<f32>, tensor<20x20xf32>, tensor<20x20xf32>, tensor<20x20xf32>, tensor<20x20xf32>, tensor<20x20xf32>, tensor<20x20xf32>, tensor<20x20xf32>, tensor<20x20xf32>, tensor<20x20xf32>) -> ()
    }) : (tensor<20x20xi1>, tensor<20x20xf32>, tensor<20x20xf32>, tensor<20x20xf32>, tensor<20x20xf32>, tensor<f32>, tensor<20x20xf32>, tensor<20x20xf32>, tensor<20x20xf32>, tensor<20x20xf32>, tensor<20x20xf32>, tensor<20x20xf32>, tensor<20x20xf32>, tensor<20x20xf32>, tensor<20x20xf32>) -> (tensor<20x20xi1>, tensor<20x20xf32>, tensor<20x20xf32>, tensor<20x20xf32>, tensor<20x20xf32>, tensor<f32>, tensor<20x20xf32>, tensor<20x20xf32>, tensor<20x20xf32>, tensor<20x20xf32>, tensor<20x20xf32>, tensor<20x20xf32>, tensor<20x20xf32>, tensor<20x20xf32>, tensor<20x20xf32>)
    %72 = "stablehlo.multiply"(%71#1, %38) : (tensor<20x20xf32>, tensor<20x20xf32>) -> tensor<20x20xf32>
    %73 = "stablehlo.constant"() <{value = dense<1.000000e+00> : tensor<f32>}> : () -> tensor<f32>
    %74 = "stablehlo.broadcast_in_dim"(%73) <{broadcast_dimensions = array<i64>}> : (tensor<f32>) -> tensor<20x20xf32>
    %75 = "stablehlo.subtract"(%74, %72) : (tensor<20x20xf32>, tensor<20x20xf32>) -> tensor<20x20xf32>
    %76 = "stablehlo.not"(%27) : (tensor<20x20xi1>) -> tensor<20x20xi1>
    %77 = "stablehlo.and"(%42, %76) : (tensor<20x20xi1>, tensor<20x20xi1>) -> tensor<20x20xi1>
    %78 = "stablehlo.constant"() <{value = dense<1.000000e+00> : tensor<f32>}> : () -> tensor<f32>
    %79 = "stablehlo.broadcast_in_dim"(%78) <{broadcast_dimensions = array<i64>}> : (tensor<f32>) -> tensor<20x20xf32>
    %80 = "stablehlo.constant"() <{value = dense<1.000000e+00> : tensor<f32>}> : () -> tensor<f32>
    %81 = "stablehlo.broadcast_in_dim"(%80) <{broadcast_dimensions = array<i64>}> : (tensor<f32>) -> tensor<20x20xf32>
    %82 = "stablehlo.constant"() <{value = dense<0.000000e+00> : tensor<f32>}> : () -> tensor<f32>
    %83 = "stablehlo.broadcast_in_dim"(%82) <{broadcast_dimensions = array<i64>}> : (tensor<f32>) -> tensor<20x20xf32>
    %84 = "stablehlo.constant"() <{value = dense<0.000000e+00> : tensor<f32>}> : () -> tensor<f32>
    %85 = "stablehlo.broadcast_in_dim"(%84) <{broadcast_dimensions = array<i64>}> : (tensor<f32>) -> tensor<20x20xf32>
    %86:7 = "stablehlo.while"(%77, %5#0, %79, %81, %5#1, %83, %85) ({
    ^bb0(%arg8: tensor<20x20xi1>, %arg9: tensor<20x20xf32>, %arg10: tensor<20x20xf32>, %arg11: tensor<20x20xf32>, %arg12: tensor<20x20xf32>, %arg13: tensor<20x20xf32>, %arg14: tensor<20x20xf32>):
      %124 = "stablehlo.constant"() <{value = dense<false> : tensor<i1>}> : () -> tensor<i1>
      %125 = "stablehlo.reduce"(%arg8, %124) <{dimensions = array<i64: 0, 1>}> ({
      ^bb0(%arg15: tensor<i1>, %arg16: tensor<i1>):
        %126 = "stablehlo.or"(%arg15, %arg16) : (tensor<i1>, tensor<i1>) -> tensor<i1>
        "stablehlo.return"(%126) : (tensor<i1>) -> ()
      }) : (tensor<20x20xi1>, tensor<i1>) -> tensor<i1>
      "stablehlo.return"(%125) : (tensor<i1>) -> ()
    }, {
    ^bb0(%arg1: tensor<20x20xi1>, %arg2: tensor<20x20xf32>, %arg3: tensor<20x20xf32>, %arg4: tensor<20x20xf32>, %arg5: tensor<20x20xf32>, %arg6: tensor<20x20xf32>, %arg7: tensor<20x20xf32>):
      %100 = "stablehlo.constant"() <{value = dense<1.000000e+00> : tensor<f32>}> : () -> tensor<f32>
      %101 = "stablehlo.broadcast_in_dim"(%100) <{broadcast_dimensions = array<i64>}> : (tensor<f32>) -> tensor<20x20xf32>
      %102 = "stablehlo.add"(%arg2, %101) : (tensor<20x20xf32>, tensor<20x20xf32>) -> tensor<20x20xf32>
      %103 = "stablehlo.divide"(%arg5, %102) : (tensor<20x20xf32>, tensor<20x20xf32>) -> tensor<20x20xf32>
      %104 = "stablehlo.multiply"(%arg6, %103) : (tensor<20x20xf32>, tensor<20x20xf32>) -> tensor<20x20xf32>
      %105 = "stablehlo.multiply"(%arg3, %arg5) : (tensor<20x20xf32>, tensor<20x20xf32>) -> tensor<20x20xf32>
      %106 = "stablehlo.multiply"(%102, %102) : (tensor<20x20xf32>, tensor<20x20xf32>) -> tensor<20x20xf32>
      %107 = "stablehlo.divide"(%105, %106) : (tensor<20x20xf32>, tensor<20x20xf32>) -> tensor<20x20xf32>
      %108 = "stablehlo.subtract"(%104, %107) : (tensor<20x20xf32>, tensor<20x20xf32>) -> tensor<20x20xf32>
      %109 = "stablehlo.add"(%arg7, %108) : (tensor<20x20xf32>, tensor<20x20xf32>) -> tensor<20x20xf32>
      %110 = "stablehlo.divide"(%arg5, %102) : (tensor<20x20xf32>, tensor<20x20xf32>) -> tensor<20x20xf32>
      %111 = "stablehlo.multiply"(%arg3, %110) : (tensor<20x20xf32>, tensor<20x20xf32>) -> tensor<20x20xf32>
      %112 = "stablehlo.add"(%arg4, %111) : (tensor<20x20xf32>, tensor<20x20xf32>) -> tensor<20x20xf32>
      %113 = "stablehlo.divide"(%111, %112) : (tensor<20x20xf32>, tensor<20x20xf32>) -> tensor<20x20xf32>
      %114 = "stablehlo.constant"() <{value = dense<1.1920929E-7> : tensor<f32>}> : () -> tensor<f32>
      %115 = "stablehlo.broadcast_in_dim"(%114) <{broadcast_dimensions = array<i64>}> : (tensor<f32>) -> tensor<20x20xf32>
      %116 = "stablehlo.compare"(%113, %115) <{compare_type = #stablehlo<comparison_type FLOAT>, comparison_direction = #stablehlo<comparison_direction GT>}> : (tensor<20x20xf32>, tensor<20x20xf32>) -> tensor<20x20xi1>
      %117 = "stablehlo.and"(%arg1, %116) : (tensor<20x20xi1>, tensor<20x20xi1>) -> tensor<20x20xi1>
      %118 = "stablehlo.select"(%arg1, %102, %arg2) : (tensor<20x20xi1>, tensor<20x20xf32>, tensor<20x20xf32>) -> tensor<20x20xf32>
      %119 = "stablehlo.select"(%arg1, %111, %arg3) : (tensor<20x20xi1>, tensor<20x20xf32>, tensor<20x20xf32>) -> tensor<20x20xf32>
      %120 = "stablehlo.select"(%arg1, %112, %arg4) : (tensor<20x20xi1>, tensor<20x20xf32>, tensor<20x20xf32>) -> tensor<20x20xf32>
      %121 = "stablehlo.select"(%arg1, %arg5, %arg5) : (tensor<20x20xi1>, tensor<20x20xf32>, tensor<20x20xf32>) -> tensor<20x20xf32>
      %122 = "stablehlo.select"(%arg1, %108, %arg6) : (tensor<20x20xi1>, tensor<20x20xf32>, tensor<20x20xf32>) -> tensor<20x20xf32>
      %123 = "stablehlo.select"(%arg1, %109, %arg7) : (tensor<20x20xi1>, tensor<20x20xf32>, tensor<20x20xf32>) -> tensor<20x20xf32>
      "stablehlo.return"(%117, %118, %119, %120, %121, %122, %123) : (tensor<20x20xi1>, tensor<20x20xf32>, tensor<20x20xf32>, tensor<20x20xf32>, tensor<20x20xf32>, tensor<20x20xf32>, tensor<20x20xf32>) -> ()
    }) : (tensor<20x20xi1>, tensor<20x20xf32>, tensor<20x20xf32>, tensor<20x20xf32>, tensor<20x20xf32>, tensor<20x20xf32>, tensor<20x20xf32>) -> (tensor<20x20xi1>, tensor<20x20xf32>, tensor<20x20xf32>, tensor<20x20xf32>, tensor<20x20xf32>, tensor<20x20xf32>, tensor<20x20xf32>)
    %87 = "stablehlo.multiply"(%86#3, %38) : (tensor<20x20xf32>, tensor<20x20xf32>) -> tensor<20x20xf32>
    %88 = "stablehlo.divide"(%87, %5#0) : (tensor<20x20xf32>, tensor<20x20xf32>) -> tensor<20x20xf32>
    %89 = "stablehlo.select"(%27, %75, %88) : (tensor<20x20xi1>, tensor<20x20xf32>, tensor<20x20xf32>) -> tensor<20x20xf32>
    %90 = "stablehlo.constant"() <{value = dense<0.000000e+00> : tensor<f32>}> : () -> tensor<f32>
    %91 = "stablehlo.broadcast_in_dim"(%90) <{broadcast_dimensions = array<i64>}> : (tensor<f32>) -> tensor<20x20xf32>
    %92 = "stablehlo.select"(%12, %91, %89) : (tensor<20x20xi1>, tensor<20x20xf32>, tensor<20x20xf32>) -> tensor<20x20xf32>
    %93 = "stablehlo.constant"() <{value = dense<1.000000e+00> : tensor<f32>}> : () -> tensor<f32>
    %94 = "stablehlo.broadcast_in_dim"(%93) <{broadcast_dimensions = array<i64>}> : (tensor<f32>) -> tensor<20x20xf32>
    %95 = "stablehlo.select"(%15, %94, %92) : (tensor<20x20xi1>, tensor<20x20xf32>, tensor<20x20xf32>) -> tensor<20x20xf32>
    %96 = "stablehlo.or"(%22, %9) : (tensor<20x20xi1>, tensor<20x20xi1>) -> tensor<20x20xi1>
    %97 = "stablehlo.constant"() <{value = dense<0x7FC00000> : tensor<f32>}> : () -> tensor<f32>
    %98 = "stablehlo.broadcast_in_dim"(%97) <{broadcast_dimensions = array<i64>}> : (tensor<f32>) -> tensor<20x20xf32>
    %99 = "stablehlo.select"(%96, %98, %95) : (tensor<20x20xi1>, tensor<20x20xf32>, tensor<20x20xf32>) -> tensor<20x20xf32>
    "stablehlo.custom_call"(%99, %6) <{call_target_name = "check.expect_almost_eq", has_side_effect = true}> : (tensor<20x20xf32>, tensor<20x20xf32>) -> ()
    "func.return"(%99) : (tensor<20x20xf32>) -> ()
  }) : () -> ()
  "func.func"() <{function_type = () -> (tensor<20x20xf32>, tensor<20x20xf32>), res_attrs = [{mhlo.layout_mode = "default"}, {mhlo.layout_mode = "default"}], sym_name = "inputs", sym_visibility = "private"}> ({
    %3 = "stablehlo.constant"() <{value = dense<"…"> : tensor<20x20xf32>}> : () -> tensor<20x20xf32>
    %4 = "stablehlo.constant"() <{value = dense<"…"> : tensor<20x20xf32>}> : () -> tensor<20x20xf32>
    "func.return"(%3, %4) : (tensor<20x20xf32>, tensor<20x20xf32>) -> ()
  }) : () -> ()
  "func.func"() <{function_type = () -> tensor<20x20xf32>, res_attrs = [{mhlo.layout_mode = "default"}], sym_name = "expected", sym_visibility = "private"}> ({
    %2 = "stablehlo.constant"() <{value = dense<"…"> : tensor<20x20xf32>}> : () -> tensor<20x20xf32>
    "func.return"(%2) : (tensor<20x20xf32>) -> ()
  }) : () -> ()
  "func.func"() <{function_type = (tensor<f32>) -> tensor<f32>, sym_name = "integer_pow", sym_visibility = "private"}> ({
  ^bb0(%arg0: tensor<f32>):
    %0 = "stablehlo.constant"() <{value = dense<1.000000e+00> : tensor<f32>}> : () -> tensor<f32>
    %1 = "stablehlo.divide"(%0, %arg0) : (tensor<f32>, tensor<f32>) -> tensor<f32>
    "func.return"(%1) : (tensor<f32>) -> ()
  }) : () -> ()
}) {mhlo.num_partitions = 1 : i32, mhlo.num_replicas = 1 : i32} : () -> ()

