"builtin.module"() <{sym_name = "jit_main"}> ({
  "func.func"() <{function_type = () -> tensor<4x2x3x5xf16>, res_attrs = [{jax.result_info = "", mhlo.layout_mode = "default"}], sym_name = "main", sym_visibility = "public"}> ({
    %3 = "stablehlo.constant"() <{value = dense<[0, 4]> : tensor<2xi64>}> : () -> tensor<2xi64>
    %4:2 = "func.call"() <{callee = @inputs}> : () -> (tensor<4x2x3x5xf16>, tensor<4x3xf16>)
    %5 = "func.call"() <{callee = @expected}> : () -> tensor<4x2x3x5xf16>
    %6 = "stablehlo.scatter"(%4#0, %3, %4#1) <{scatter_dimension_numbers = #stablehlo.scatter<update_window_dims = [0, 1], inserted_window_dims = [1, 3], scatter_dims_to_operand_dims = [1, 3]>, unique_indices = true}> ({
    ^bb0(%arg0: tensor<f16>, %arg1: tensor<f16>):
      %7 = "stablehlo.minimum"(%arg0, %arg1) : (tensor<f16>, tensor<f16>) -> tensor<f16>
      "stablehlo.return"(%7) : (tensor<f16>) -> ()
    }) : (tensor<4x2x3x5xf16>, tensor<2xi64>, tensor<4x3xf16>) -> tensor<4x2x3x5xf16>
    "stablehlo.custom_call"(%6, %5) <{call_target_name = "check.expect_close", has_side_effect = true}> : (tensor<4x2x3x5xf16>, tensor<4x2x3x5xf16>) -> ()
    "func.return"(%6) : (tensor<4x2x3x5xf16>) -> ()
  }) : () -> ()
  "func.func"() <{function_type = () -> (tensor<4x2x3x5xf16>, tensor<4x3xf16>), res_attrs = [{mhlo.layout_mode = "default"}, {mhlo.layout_mode = "default"}], sym_name = "inputs", sym_visibility = "private"}> ({
    %1 = "stablehlo.constant"() <{value = dense<"…"> : tensor<4x2x3x5xf16>}> : () -> tensor<4x2x3x5xf16>
    %2 = "stablehlo.constant"() <{value = dense<[[-2.015630e+00, 2.941410e+00, 5.554690e+00], [3.673830e+00, -5.297850e-01, 4.468750e+00], [6.342770e-01, -6.309500e-03, -8.105460e-01], [-4.644530e+00, -4.619140e-01, -1.895510e+00]]> : tensor<4x3xf16>}> : () -> tensor<4x3xf16>
    "func.return"(%1, %2) : (tensor<4x2x3x5xf16>, tensor<4x3xf16>) -> ()
  }) : () -> ()
  "func.func"() <{function_type = () -> tensor<4x2x3x5xf16>, res_attrs = [{mhlo.layout_mode = "default"}], sym_name = "expected", sym_visibility = "private"}> ({
    %0 = "stablehlo.constant"() <{value = dense<"…"> : tensor<4x2x3x5xf16>}> : () -> tensor<4x2x3x5xf16>
    "func.return"(%0) : (tensor<4x2x3x5xf16>) -> ()
  }) : () -> ()
}) {mhlo.num_partitions = 1 : i32, mhlo.num_replicas = 1 : i32} : () -> ()

