"builtin.module"() <{sym_name = "jit_main"}> ({
  "func.func"() <{function_type = () -> tensor<1x1x16x2xf32>, res_attrs = [{jax.result_info = "", mhlo.layout_mode = "default"}], sym_name = "main", sym_visibility = "public"}> ({
    %3:2 = "func.call"() <{callee = @inputs}> : () -> (tensor<1x1x16x1xf32>, tensor<4x1x1x2xf32>)
    %4 = "func.call"() <{callee = @expected}> : () -> tensor<1x1x16x2xf32>
    %5 = "stablehlo.convolution"(%3#0, %3#1) <{batch_group_count = 1 : i64, dimension_numbers = #stablehlo.conv<[b, 0, 1, f]x[0, 1, i, o]->[b, 0, 1, f]>, feature_group_count = 1 : i64, padding = dense<[[1, 2], [0, 0]]> : tensor<2x2xi64>}> : (tensor<1x1x16x1xf32>, tensor<4x1x1x2xf32>) -> tensor<1x1x16x2xf32>
    "stablehlo.custom_call"(%5, %4) <{call_target_name = "check.expect_close", has_side_effect = true}> : (tensor<1x1x16x2xf32>, tensor<1x1x16x2xf32>) -> ()
    "func.return"(%5) : (tensor<1x1x16x2xf32>) -> ()
  }) : () -> ()
  "func.func"() <{function_type = () -> (tensor<1x1x16x1xf32>, tensor<4x1x1x2xf32>), res_attrs = [{mhlo.layout_mode = "default"}, {mhlo.layout_mode = "default"}], sym_name = "inputs", sym_visibility = "private"}> ({
    %1 = "stablehlo.constant"() <{value = dense<[[[[… > : tensor<1x1x16x1xf32>}> : () -> tensor<1x1x16x1xf32>
    %2 = "stablehlo.constant"() <{value = dense<[[[[0.354699761, 0.679385543]]], [[[0.609961211, 0.152189493]]], [[[-2.194420e+00, -2.72838569]]], [[[-0.477422208, -1.72463417]]]]> : tensor<4x1x1x2xf32>}> : () -> tensor<4x1x1x2xf32>
    "func.return"(%1, %2) : (tensor<1x1x16x1xf32>, tensor<4x1x1x2xf32>) -> ()
  }) : () -> ()
  "func.func"() <{function_type = () -> tensor<1x1x16x2xf32>, res_attrs = [{mhlo.layout_mode = "default"}], sym_name = "expected", sym_visibility = "private"}> ({
    %0 = "stablehlo.constant"() <{value = dense<[[[[… > : tensor<1x1x16x2xf32>}> : () -> tensor<1x1x16x2xf32>
    "func.return"(%0) : (tensor<1x1x16x2xf32>) -> ()
  }) : () -> ()
}) {mhlo.num_partitions = 1 : i32, mhlo.num_replicas = 1 : i32} : () -> ()

